models/q_network_dueling_b845945d4b.pth (torch, 76318 bytes, 10 tensors)

net.0.weight f4 [128, 3]
45.385185 42.354282 25.553045 45.747448 42.422684 22.984959 45.813416 42.44443
22.9159 43.96188 41.252857 24.257168 45.779484 42.449276 23.41074 45.77978
42.438675 23.059282 45.78029 42.43725 22.978386 39.10166 38.69875 14.835811
40.03653 37.491318 17.969105 39.957672 37.37727 17.671862 36.90774 39.032887
20.945148 38.53328 38.523434 15.479031 38.96216 38.82498 8.925348 45.784344
42.43884 22.969349 39.45991 40.436058 18.237425 45.693745 42.52318 26.788853
45.55135 42.38524 24.076612 40.333637 40.068947 20.063438 45.802414 42.448532
23.175226 40.044434 40.286922 17.853352 36.792988 37.997513 15.556869 45.774086
42.429127 22.798508 39.123795 38.932007 9.192497 38.670574 38.62855 14.490793
35.95632 38.77887 17.743202 38.983715 38.133385 17.650549 39.28152 40.263916
16.404799 35.56718 38.594315 16.924427 34.25063 40.56139 13.710539 39.336727
41.004253 10.106749 37.645184 38.243458 13.621937 35.642834 38.66874 17.58073
40.99127 37.661438 4.8714595 39.852295 37.223114 16.943493 37.24398 38.17026
13.281008 45.78374 42.441593 23.085506 33.642967 40.31837 13.0646715 45.79744
42.445686 23.110336 37.196617 38.138573 13.545491 35.51582 38.553734 16.896177
40.0466 37.588852 16.491022 38.648136 38.57387 14.358768 45.712673 42.414005
23.137205 37.32053 38.169968 13.477638 41.00982 40.182438 20.857323 39.380592
37.071285 4.980388 43.950188 41.076183 24.085377 45.818794 42.449085 23.058956
45.815395 42.43717 22.56325 39.458023 39.7073 25.660593 45.735245 42.420876
23.06488 40.529972 40.728626 20.11617 42.95524 40.154625 22.712923 45.684723
42.541492 27.490725 41.673355 40.484703 21.80239 36.644524 38.043453 15.19553
39.38234 39.886852 25.18474 45.552807 42.388412 24.174479 45.80255 42.446754
23.120699 39.372147 38.332363 17.917572 45.776516 42.441116 23.202318 45.817482
42.4476 23.003664 39.921005 37.363754 17.632402 38.256397 40.078495 27.365644
45.748272 42.427853 23.104733 38.89233 38.797153 8.730575 40.068 40.57284
19.352621 40.932655 37.61037 -1.1365397 38.50078 40.47742 16.664667 41.05211
37.228878 17.524036 45.85554 42.450745 22.58138 38.36359 40.75605 8.176972
36.99276 38.02886 12.843472 37.027954 37.844475 15.871926 45.035378 41.18709
45.766186 40.10342 37.375175 17.494324 39.13096 38.983738 9.498396 45.80545
42.44045 22.821558 37.042793 39.119415 30.711983 45.762207 42.43436 23.138485
40.17824 40.53181 20.240404 45.805122 42.44549 23.03206 37.666027 38.188225
14.4035845 45.779648 42.438553 23.064493 40.010204 37.458828 17.43413 36.900738
00000000: 6e8a 3542 c96a 2942 a36c cc41 63fd 3642
00000010: d4b0 2942 32e1 b741 f040 3742 19c7 2942
00000020: c353 b741 f7d8 2f42 ed02 2542 ae0e c241
00000030: 311e 3742 0fcc 2942 3249 bb41 7f1e 3742
00000040: 34c1 2942 6979 b841 041f 3742 bebf 2942
00000050: bcd3 b741 1a68 1c42 85cb 1a42 7b5f 6d41
00000060: 6825 2042 1cf7 1542 bac0 8f41 a8d4 1f42
00000070: 5382 1542 f95f 8d41 87a1 1342 ad21 1c42
00000080: aa8f a741 1422 1a42 ff17 1a42 1caa 7741
00000090: 40d9 1b42 c84c 1b42 3ace 0e41 2b23 3742
000000a0: 5fc1 2942 3ac1 b741 f3d6 1d42 86be 2142
000000b0: 3fe6 9141 65c6 3642 bc17 2a42 924f d641
000000c0: 9534 3642 7c8a 2942 e79c c041 a555 2142
000000d0: 9a46 2042 ec81 a041 ac35 3742 4ccb 2942
000000e0: dd66 b941 802d 2042 cf25 2142 aad3 8e41
000000f0: 052c 1342 74fd 1742 efe8 7841 aa18 3742
00000100: 6db7 2942 5863 b641 c47e 1c42 60ba 1b42
00000110: 7814 1341 abae 1a42 a383 1a42 4ada 6741
00000120: 46d3 0f42 901d 1b42 14f2 8d41 53ef 1b42
00000130: 9688 1842 5334 8d41 4720 1d42 400e 2142
00000140: 073d 8341 cb44 0e42 9460 1a42 3a65 8741
00000150: a500 0942 dd3e 2242 5e5e 5b41 cf58 1d42
00000160: 5b04 2442 3eb5 2141 ab94 1642 4df9 1842
00000170: 74f3 5941 4392 0e42 caac 1a42 56a5 8c41
00000180: 0ff7 2342 50a5 1642 ffe2 9b40 c068 1f42
00000190: 78e4 1442 468c 8741 d6f9 1442 59ae 1842
000001a0: 027f 5441 8d22 3742 31c4 2942 1eaf b841
000001b0: 6692 0642 0346 2142 e508 5141 9430 3742
000001c0: 62c8 2942 f8e1 b841 56c9 1442 e68d 1842
000001d0: 55ba 5841 3310 0e42 0637 1a42 5f2b 8741
000001e0: b82f 2042 fc5a 1642 9ded 8341 b197 1a42
000001f0: a54b 1a42 84bd 6541 c7d9 3642 f1a7 2942
00000200: ff18 b941 3948 1542 0cae 1842 68a4 5741
00000210: 0e0a 2442 d1ba 2042 ccdb a641 ba85 1d42
00000220: ff48 1442 575f 9f40 fecc 2f42 034e 2442
00000230: daae c041 7246 3742 ddcb 2942 be78 b841
00000240: f742 3742 a9bf 2942 8981 b441 04d5 1d42
00000250: 46d4 1e42 e548 cd41 e4f0 3642 faae 2942
00000260: e084 b841 b11e 2242 1dea 2242 ebed a041
00000270: 2ad2 2b42 569e 2042 11b4 b541 28bd 3642
00000280: 7d2a 2a42 01ed db41 84b1 2642 56f0 2142
00000290: 4b6b ae41 fe93 1242 7f2c 1842 e420 7341
000002a0: 8487 1d42 238c 1f42 597a c941 1336 3642
000002b0: bc8d 2942 5565 c141 d035 3742 7ac9 2942
000002c0: 31f7 b841 147d 1d42 5754 1942 3057 8f41
000002d0: 271b 3742 b4c3 2942 599e b941 1a45 3742
000002e0: 58ca 2942 8107 b841 1caf 1f42 7c74 1542
000002f0: 290f 8d41 8d06 1942 6150 2042 d7ec da41
00000300: 3bfe 3642 1fb6 2942 7ed6 b841 bf91 1b42
00000310: 4930 1b42 6fb0 0b41 a245 2042 974a 2242
00000320: 2bd2 9a41 0abb 2342 0571 1642 227a 91bf
00000330: cc00 1a42 e1e8 2142 3d51 8541 5c35 2442
00000340: 5fea 1442 3a31 8c41 136c 3742 90cd 2942
00000350: aba6 b441 5174 1942 3206 2342 e1d4 0241
00000360: 96f8 1342 8d1d 1842 dc7e 4d41 a01c 1442
00000370: be60 1742 69f3 7d41 3a24 3442 95bf 2442
00000380: 9310 3742 e769 2042 2e80 1542 60f4 8b41
00000390: 1a86 1c42 59ef 1b42 6ef9 1741 c838 3742
000003a0: 05c3 2942 8d92 b641 d22b 1442 487a 1c42
000003b0: 24b2 f541 800c 3742 c9bc 2942 9e1b b941
000003c0: 85b6 2042 9320 2242 59ec a141 7238 3742
000003d0: 2fc8 2942 a941 b841 03aa 1642 bec0 1842
000003e0: 1575 6641 5c1e 3742 14c1 2942 1584 b841
000003f0: 730a 2042 d7d5 1542 1979 8b41 5b9a 1342

net.0.bias f4 [128]
55.154667 49.630417 48.559475 56.398556 49.003395 49.066574 49.068054 17.530518
49.10763 49.092884 58.381927 17.303009 18.081768 49.00266 39.2519 49.733017
52.646503 49.124004 48.689846 36.323795 68.15614 49.215336 20.161867 17.138258
60.019566 58.263412 25.218897 58.247475 56.65912 32.069294 15.295597 60.758488
21.54944 48.979 14.026341 48.99421 61.03613 48.777157 13.985112 58.30909
48.68236 16.936333 50.17984 14.464236 52.186985 62.034866 56.71008 48.449795
48.58285 52.430843 49.814293 43.425392 52.36244 49.739758 53.980927 68.49699
52.37735 52.601414 48.696987 59.486473 49.09439 48.479237 49.081024 48.981205
49.581074 18.008698 44.001057 22.684362 35.510193 22.071836 47.93205 29.87747
13.336428 67.18496 51.870495 49.191463 21.47189 48.69909 56.5454 49.344257
47.49982 48.67071 14.915325 49.06892 49.202507 55.703564 18.056246 50.357826
49.655308 36.41624 46.719326 40.569065 52.76769 17.350388 60.210804 58.610306
67.14479 67.93112 41.788605 61.402378 48.763298 59.590313 50.836273 17.371342
49.733704 53.817596 58.84605 14.730905 52.919773 48.799873 54.269066 49.091854
17.448782 60.96421 59.409855 52.7319 20.049702 49.220085 31.579292 17.401237
67.893036 68.808 47.9894 49.162445 48.59414 48.444736 56.655117 48.82967
00000000: 619e 5c42 8c85 4642 e73c 4242 1f98 6142
00000010: 7a03 4442 2c44 4442 b045 4442 803e 8c41
00000020: 376e 4442 1d5f 4442 1887 6942 906c 8a41
00000030: 76a7 9041 b902 4442 f201 1d42 9cee 4642
00000040: 0596 5242 fb7e 4442 67c2 4242 914b 1142
00000050: f24f 8842 81dc 4442 814b a141 271b 8941
00000060: 0914 7042 bc0d 6942 4dc0 c941 6afd 6842
00000070: f0a2 6242 f546 0042 c4ba 7441 b108 7342
00000080: 4165 ac41 7fea 4342 e56b 6041 12fa 4342
00000090: ff24 7442 cf1b 4342 05c3 5f41 823c 6942
000000a0: bdba 4242 9c7d 8741 28b8 4842 836d 6741
000000b0: 79bf 5042 b423 7842 1fd7 6242 97cc 4142
000000c0: d754 4242 2fb9 5142 d641 4742 9ab3 2d42
000000d0: 2373 5142 83f5 4642 78ec 5742 75fe 8842
000000e0: 6882 5142 d967 5242 b7c9 4242 26f2 6d42
000000f0: a860 4442 bdea 4142 f852 4442 c1ec 4342
00000100: 0553 4642 d011 9041 1501 3042 9379 b541
00000110: 700a 0e42 1f93 b041 6bba 3f42 0f05 ef41
00000120: 0262 5541 b35e 8642 637b 4f42 0fc4 4442
00000130: 6ec6 ab41 decb 4242 7d2e 6242 8560 4542
00000140: d1ff 3d42 cfae 4242 2ca5 6e41 9346 4442
00000150: 5ecf 4442 73d0 5e42 3173 9041 6a6e 4942
00000160: 099f 4642 3baa 1142 97e0 3a42 b946 2242
00000170: 1d12 5342 98cd 8a41 ddd7 7042 f470 6a42
00000180: 224a 8642 bcdc 8742 8827 2742 099c 7542
00000190: 9e0d 4342 7b5c 6e42 5858 4b42 82f8 8a41
000001a0: 50ef 4642 3845 5742 5b62 6b42 c9b1 6b41
000001b0: d9ad 5342 1233 4342 8613 5942 0f5e 4442
000001c0: 1b97 8b41 5adb 7342 b1a3 6d42 77ed 5242
000001d0: ca65 a041 5ee1 4442 64a2 fc41 bc35 8b41
000001e0: 3cc9 8742 b29d 8942 25f5 3f42 58a6 4442
000001f0: 6660 4242 69c7 4142 d79e 6242 9551 4342

net.1.weight f4 [128]
2.2655954 0.30012247 0.30572107 5.2940755 1.1398255 0.28971955 0.5117975 3.7862349
11.941532 11.506802 8.495667 3.7330668 4.208781 0.25372142 16.898716 0.5551231
0.8971881 62.317684 0.29550213 7.771237 4.036496 0.31515408 4.080718 3.8101716
10.1697645 8.081153 4.8391223 15.454361 3.4118245 5.324352 3.5530212 9.318235
4.1801014 11.349854 3.503548 0.8800871 3.3748689 0.32171294 3.5627718 14.770669
13.514962 3.8995583 0.37193075 3.4879262 30.287212 5.0127077 7.825102 0.32835573
0.4793453 22.670351 0.265387 30.545649 9.091237 0.6209215 21.042007 3.7936444
17.741558 1.3915292 0.48098108 8.106728 0.41013467 0.21077394 11.46045 8.803754
0.2434176 4.1713934 43.36934 4.287327 6.7488155 3.6985788 0.36623827 4.977254
3.4507074 4.3345966 1.8476999 11.599947 4.1436343 0.31964847 5.653962 0.24302632
45.47075 0.35783696 3.5295827 0.2783898 12.005033 6.3716164 4.156191 2.248478
0.29590836 9.818005 50.881695 25.217121 14.115465 4.010901 3.3726497 3.4499106
4.319084 3.725687 31.608553 3.3240597 23.21909 5.6694117 3.71185 3.719085
25.652647 1.1561364 8.312602 3.5446894 1.7717543 0.4244201 14.557305 0.29564142
3.6902308 3.3634033 11.086322 25.57907 4.134076 0.3559678 5.2180257 3.587348
4.1736736 3.7767313 0.51170117 0.32808623 1.9142166 0.21740225 12.650822 0.43800086
00000000: 84ff 1040 a7a9 993e 7987 9c3e 1169 a940
00000010: cde5 913f 1f56 943e 2905 033f ac51 7240
00000020: 8410 3f41 dc1b 3841 41ee 0741 91ea 6e40
00000030: 55ae 8640 c6e7 813e 9230 8741 8c1c 0e3f
00000040: 1fae 653f 4f45 7942 0e4c 973e f9ad f840
00000050: fa2a 8140 e05b a13e 3e95 8240 dad9 7340
00000060: 5bb7 2241 674c 0141 17da 9a40 1045 7741
00000070: 555b 5a40 1761 aa40 b364 6340 7e17 1541
00000080: 64c3 8540 0199 3541 213a 6040 634d 613f
00000090: dafd 5740 8fb7 a43e 7404 6440 a954 6c41
000000a0: 493d 5841 5d92 7940 b56d be3e 2f3a 5f40
000000b0: 364c f241 1a68 a040 3c67 fa40 3e1e a83e
000000c0: bf6c f53e e15c b541 cee0 873e 7d5d f441
000000d0: b575 1141 b6f4 1e3f 0856 a841 12cb 7240
000000e0: b6ee 8d41 a11d b23f 2743 f63e 28b5 0141
000000f0: 2cfd d13e 20d5 573e 015e 3741 2ddc 0c41
00000100: 7742 793e 0e7c 8540 347a 2d42 c831 8940
00000110: 4cf6 d740 84b5 6c40 9583 bb3e aa45 9f40
00000120: 64d8 5c40 04b5 8a40 6e81 ec3f 6299 3941
00000130: a798 8440 f7a8 a33e 42ed b440 e4db 783e
00000140: 0ce2 3542 6836 b73e afe4 6140 1c89 8e3e
00000150: 9d14 4041 48e4 cb40 84ff 8440 10e7 0f40
00000160: 4d81 973e 8c16 1d41 db86 4b42 aabc c941
00000170: f2d8 6141 4d59 8040 7ed9 5740 56cb 5c40
00000180: f035 8a40 a871 6e40 51de fc41 65bd 5440
00000190: b2c0 b941 d26b b540 f38e 6d40 7d05 6e40
000001a0: 9f38 cd41 47fc 933f 6b00 0541 31dc 6240
000001b0: d8c8 e23f 974d d93e b9ea 6841 505e 973e
000001c0: be2c 6c40 0042 5740 9361 3141 efa1 cc41
000001d0: 5a4a 8440 6941 b63e 11fa a640 1c97 6540
000001e0: bc8e 8540 f7b5 7140 d9fe 023f ebfa a73e
000001f0: 0d05 f53f b29e 5e3e c469 4a41 a641 e03e

net.1.bias f4 [128]
-3.227161 -0.7254768 -0.6811721 -5.3452735 -1.6542429 -0.70872796 -1.0373224 3.3118978
2.4423294 2.6096945 5.8814707 3.6073015 3.6627045 -0.7321953 5.4013925 -1.22198
-1.5093268 0.2264668 -0.6049486 2.0555308 3.0512729 -0.680611 3.3170233 3.7242057
9.035543 2.7417042 2.8722372 15.691481 4.246784 2.273174 4.2920623 8.868003
2.1036365 2.8843014 4.613929 -1.6564199 4.591965 -0.6592548 4.7942467 15.20243
2.6815407 3.6935678 -0.75006026 4.5483093 -6.058219 1.8517727 -7.877071 -0.7263211
-0.80288804 3.707453 -0.64392513 -0.28978696 -5.8917456 -1.3101729 -8.425398 2.9667294
3.0095468 -2.1471145 -0.90042615 1.7828115 -0.83996534 -0.7487074 2.7443712 3.608638
-0.62287277 3.6137924 3.2913973 2.1779954 3.9192762 1.9568648 -0.73839796 3.6346834
4.8437624 3.109428 -2.305639 2.2543583 3.297218 -0.6845743 3.682593 -0.7740704
-0.2558575 -0.6536776 4.2973404 -0.67066556 2.5548496 4.41603 3.6968012 -3.2948816
-0.7599948 5.6003404 4.12508 6.905251 -4.7426305 3.7239137 4.642785 4.807239
3.0539653 2.8381073 6.3561516 4.442092 -4.7095165 3.9896557 5.20083 3.3343828
-4.529029 -1.7373697 1.6379488 4.350712 -2.61273 -0.82500476 2.1525674 -0.7097082
3.3529937 4.5107155 11.699002 -6.190645 3.2751484 -0.7299881 2.5579011 3.755589
2.9604077 3.0311043 -0.94284374 -0.67324 -2.3141794 -0.8028211 4.2893977 -0.8021971
00000000: ce89 4ec0 d9b8 39bf 4b61 2ebf 7b0c abc0
00000010: 3bbe d3bf 326f 35bf fbc6 84bf 22f6 5340
00000020: 204f 1c40 3c05 2740 0235 bc40 07de 6640
00000030: c069 6a40 2771 3bbf 35d8 ac40 d769 9cbf
00000040: 9f31 c1bf eae6 673e e9dd 1abf d18d 0340
00000050: 0e48 4340 863c 2ebf 1c4a 5440 6359 6e40
00000060: 9691 1041 1578 2f40 bcd2 3740 4e10 7b41
00000070: a8e5 8740 af7b 1140 9358 8940 57e3 0d41
00000080: fba1 0640 6598 3840 4ea5 9340 9105 d4bf
00000090: 61f1 9240 ecc4 28bf 786a 9940 273d 7341
000000a0: 5d9e 2b40 6a63 6c40 f303 40bf c08b 9140
000000b0: eedc c1c0 e306 ed3f f710 fcc0 2ef0 39bf
000000c0: 128a 4dbf e946 6d40 47d8 24bf f55e 94be
000000d0: 2e89 bcc0 bfb3 a7bf 6ece 06c1 e5de 3d40
000000e0: 6a9c 4040 536a 09c0 5482 66bf 2b33 e43f
000000f0: f807 57bf 4aab 3fbf c7a3 2f40 edf3 6640
00000100: 9774 1fbf 6048 6740 41a6 5240 4764 0b40
00000110: 6cd5 7a40 8c7a fa3f a607 3dbf a79e 6840
00000120: 1a00 9b40 de00 4740 978f 13c0 6847 1040
00000130: 9f05 5340 4340 2fbf 9baf 6b40 7a29 46bf
00000140: c1ff 82be 6a57 27bf d083 8940 bdb0 2bbf
00000150: a882 2340 1e50 8d40 6498 6c40 57df 52c0
00000160: 058f 42bf fd35 b340 a800 8440 d1f7 dc40
00000170: a1c3 97c0 9a54 6e40 b291 9440 e7d4 9940
00000180: 2b74 4340 8da3 3540 9865 cb40 9e25 8e40
00000190: 5cb4 96c0 8556 7f40 336d a640 8766 5540
000001a0: ceed 90c0 2162 debf 4ea8 d13f 0839 8b40
000001b0: f836 27c0 8333 53bf aac3 0940 70af 35bf
000001c0: 7397 5640 c857 9040 1d2f 3b41 c419 c6c0
000001d0: 089c 5140 80e0 3abf a7b4 2340 925b 7040
000001e0: 5277 3d40 9dfd 4140 355e 71bf 7559 2cbf
000001f0: 841b 14c0 af85 4dbf bf42 8940 ca5c 4dbf

net.4.weight f4 [128, 128]
6.5058956 0.04767809 0.021391777 -3.5825012 2.007149 0.11053236 0.16310434 12.277832
13.770558 14.628021 30.91997 11.792521 10.111384 0.025881603 13.520789 1.0713617
0.09724277 -0.06030473 -0.10579421 14.359459 10.361602 -0.24668808 11.273694 11.625358
31.606258 6.869086 14.4775 25.873081 -5.083169 13.972634 11.846192 32.318745
12.06915 13.006078 11.312658 0.67773014 -3.011416 -0.02385684 11.287342 27.659472
12.012886 11.348157 0.04258534 10.80435 2.5994766 14.010041 -4.483033 0.12878543
0.29259583 10.850771 0.049768314 12.147063 -6.6492505 1.5265763 3.0385177 9.605382
16.170712 -1.3641744 0.12610081 6.005594 0.02108353 0.13084175 13.431952 14.356179
0.1401326 10.0982485 3.672975 11.694056 13.774826 12.839463 0.3667858 13.763192
11.388412 6.490862 11.540432 14.045474 11.677636 -0.04612817 -6.953227 0.14439431
4.592232 -0.03953724 11.225571 0.102086194 13.583806 -4.3493657 10.060934 1.5829715
0.06857535 11.256579 2.6650221 12.832927 8.403872 10.466311 -2.712453 -1.6399868
7.3695126 10.836305 9.711871 -4.0092306 -7.803683 5.0175624 -8.810169 12.664487
4.903228 0.19610822 7.5936275 10.565041 -0.3566071 0.020374352 11.469016 0.22516254
12.486032 -2.2320836 28.949648 2.7858028 10.811259 -0.086002655 14.998966 12.367804
6.5732417 9.122568 0.09281042 0.21293284 11.508044 0.100686595 13.829367 0.38752112
0.7331698 -0.0042601065 0.019195456 -6.865234 2.9446635 0.13008614 0.1801998 3.4472768
21.96543 23.241173 3.8956394 0.18469134 1.4898053 0.057336386 15.063318 -1.4495844
-0.4287716 5.152111 -0.27789202 12.851048 21.735659 0.1635451 3.3007438 1.2413559
8.419202 21.160501 8.200374 8.051779 18.329437 9.6934 -6.2674026 3.4122639
10.637236 22.250406 -9.232951 -0.040863883 19.230104 0.11293877 -8.787944 7.8103323
22.198664 2.9213753 0.5739688 -8.214369 10.879758 18.67235 -2.5873666 0.10189501
2.6680977 10.074039 0.34682533 12.128317 -3.4913862 -1.175219 13.80281 21.544546
9.122409 1.1354263 -0.73367715 22.155039 0.19689463 0.13566737 23.10424 11.822051
0.14790826 1.5527903 9.954446 9.247171 15.397936 9.297819 1.4137146 9.065963
-10.199238 23.092527 1.1941395 22.72313 3.419476 0.013578297 9.676719 0.042543415
5.678811 -0.023481486 -7.233489 0.48618525 22.46586 10.696212 2.0910957 1.3024203
0.012846569 14.501255 7.659431 9.616464 6.9508343 1.413068 18.343693 17.706573
23.109524 21.450811 7.464979 19.047293 -2.015568 10.154253 17.666607 3.433529
5.1880407 0.42267027 21.32503 -8.500412 0.19776708 0.39229432 19.387032 0.06336916
3.340513 18.754314 5.907618 9.136529 2.733969 0.08530723 11.251001 -2.450159
22.463964 21.573446 0.42428035 0.14703488 2.7652514 0.05512121 8.994784 0.44066277
00000000: 4c30 d040 1a4a 433d cf3d af3c b347 65c0
00000010: 2175 0040 ca5e e23d d304 273e 0072 4441
00000020: 3554 5c41 600c 6a41 195c f741 2bae 3c41
00000030: 3bc8 2141 a805 d43c 2755 5841 6122 893f
00000040: 3827 c73d 1802 77bd a3aa d8bd 58c0 6541
00000050: 1fc9 2541 cd9b 7cbe 0d61 3441 7701 3a41
00000060: 9ed9 fc41 8dcf db40 d7a3 6741 12fc ce41
00000070: 52a9 a2c0 e98f 5f41 018a 3d41 6546 0142
00000080: 3d1b 4141 e518 5041 a600 3541 b97f 2d3f
00000090: 0abb 40c0 6b6f c3bc f498 3441 9946 dd41
000000a0: c834 4041 0d92 3541 f76d 2e3d 9ede 2c41
000000b0: d35d 2640 2129 6041 0275 8fc0 54e0 033e
000000c0: 1fcf 953e c29c 2d41 dcd9 4b3d 5f5a 4241
000000d0: a9c6 d4c0 da66 c33f 1377 4240 a5af 1941
000000e0: 9e5d 8141 449d aebf 9220 013e d32d c040
000000f0: 5eb7 ac3c 61fb 053e 47e9 5641 e9b2 6541
00000100: ec7e 0f3e 6d92 2141 0612 6b40 da1a 3b41
00000110: b065 5c41 716e 4d41 59cb bb3e 0936 5c41
00000120: f036 3641 24b5 cf40 9ca5 3841 43ba 6041
00000130: 99d7 3a41 e4f0 3cbd d680 dec0 1adc 133e
00000140: 91f3 9240 cdf1 21bd f09b 3341 9112 d13d
00000150: 4557 5941 012e 8bc0 96f9 2041 cf9e ca3f
00000160: 3c71 8c3d f31a 3441 b98f 2a40 ab53 4d41
00000170: 4276 0641 0376 2741 d498 2dc0 16eb d1bf
00000180: 0cd3 eb40 8161 2d41 d363 1b41 9e4b 80c0
00000190: c5b7 f9c0 df8f a040 74f6 0cc1 bda1 4a41
000001a0: 3ee7 9c40 98d0 483e fffe f240 680a 2941
000001b0: 3595 b6be 1de8 a63c 1781 3741 0291 663e
000001c0: c9c6 4741 75da 0ec0 e198 e741 984a 3240
000001d0: ebfa 2c41 2922 b0bd c4fb 6f41 86e2 4541
000001e0: ff57 d240 0af6 1141 6413 be3d 110b 5a3e
000001f0: f320 3841 c634 ce3d 1645 5d41 2b69 c63e
00000200: 04b1 3b3f 5d98 8bbb ca3f 9d3c ffaf dbc0
00000210: 5e75 3c40 4d35 053e 4c86 383e 2fa0 5c40
00000220: 33b9 af41 eced b941 2852 7940 ba1f 3d3e
00000230: f1b1 be3f 8fd9 6a3d 5a03 7141 fb8b b9bf
00000240: f387 dbbe 18de a440 dd47 8ebe e59d 4d41
00000250: a1e2 ad41 5e78 273e 633f 5340 c0e4 9e3f
00000260: 0db5 0641 b548 a941 bb34 0341 16d4 0041
00000270: b0a2 9241 2b18 1b41 908e c8c0 8862 5a40
00000280: 1e32 2a41 d500 b241 2bba 13c1 e360 27bd
00000290: 41d7 9941 714c e73d 6b9b 0cc1 3eee f940
000002a0: dd96 b141 d0f7 3a40 9fef 123f 0e6e 03c1
000002b0: 7d13 2e41 f960 9541 6a97 25c0 55ae d03d
000002c0: 1dc2 2a40 442f 2141 1793 b13e 960d 4241
000002d0: df72 5fc0 946d 96bf 4fd8 5c41 3b5b ac41
000002e0: 63f5 1141 a655 913f 44d2 3bbf 853d b141
000002f0: bf9e 493e 63ec 0a3e 7cd5 b841 1f27 3d41
00000300: 4375 173e d5c1 c63f 6945 1f41 6af4 1341
00000310: f25d 7641 dec3 1441 9af4 b43f 2f0e 1141
00000320: 1430 23c1 7fbd b841 90d9 983f f8c8 b541
00000330: b2d8 5a40 8177 5e3c d7d3 1a41 0142 2e3d
00000340: d2b8 b540 3f5c c0bc be78 e7c0 46ed f83e
00000350: 15ba b341 af23 2b41 83d4 0540 b5b5 a63f
00000360: 6a7a 523c 2405 6841 0f1a f540 09dd 1941
00000370: 3c6d de40 6adf b43f e2bf 9241 10a7 8d41
00000380: 4ee0 b841 439b ab41 1ce1 ee40 db60 9841
00000390: 11ff 00c0 d277 2241 3655 8d41 f0be 5b40
000003a0: 6e04 a640 3d68 d83e a999 aa41 b001 08c1
000003b0: 7483 4a3e cdda c83e a418 9b41 b1c7 813d
000003c0: f7ca 5540 d608 9641 350b bd40 392f 1241
000003d0: 59f9 2e40 8fb5 ae3d 1a04 3441 68cf 1cc0
000003e0: 33b6 b341 6b96 ac41 463b d93e 5090 163e
000003f0: e1f9 3040 c7c6 613d a3ea 0f41 8d9e e13e

net.4.bias f4 [128]
18.672709 20.809113 22.841652 20.946657 18.894194 16.431604 23.599922 24.286152
6.914105 17.672312 21.25604 22.866629 22.427925 21.074324 23.346601 11.727561
19.840174 16.934004 22.483553 23.182293 21.781073 20.813223 19.821486 18.640476
19.563135 22.987198 7.356457 11.096611 18.955492 19.591507 16.778059 9.882183
23.167324 17.958778 12.679207 18.009327 26.022446 5.4866343 22.488667 6.3950176
15.433236 18.720144 18.144695 16.621513 20.369131 25.036808 16.974041 16.30517
23.408617 31.04035 20.548805 21.427752 23.431826 19.786709 20.025911 24.220163
15.988447 22.311686 30.840399 23.085884 12.468685 8.4259 20.973946 18.794275
17.210205 18.179897 15.682533 14.159567 18.3299 23.409597 16.927965 22.326504
22.610762 19.697826 11.336049 18.288462 21.557817 22.815874 23.374802 13.41093
19.390467 22.93996 10.728541 17.073492 22.008423 20.00709 20.14318 21.113922
20.243319 19.565084 20.085382 22.772455 25.508272 23.899527 21.656916 20.88213
11.65482 21.84592 15.892043 18.657166 20.705029 -8.162992 19.960455 19.715322
14.474488 24.822699 19.40334 13.011281 15.017274 23.701984 19.203125 7.213705
21.53503 22.923084 21.848068 19.13309 23.204327 19.128149 24.002779 22.780743
16.64304 9.950039 19.34881 21.842499 16.793509 7.6990337 25.141367 23.252111
00000000: b561 9541 1079 a641 b4bb b641 c192 a741
00000010: 4f27 9741 ed73 8341 a4cc bc41 0a4a c241
00000020: 5940 dd40 e560 8d41 5f0c aa41 dbee b641
00000030: 646c b341 3798 a841 d7c5 ba41 17a4 3b41
00000040: adb8 9e41 d778 8741 51de b341 5675 b941
00000050: a33f ae41 7b81 a641 6792 9e41 b21f 9541
00000060: 4d81 9c41 c8e5 b741 1968 eb40 b88b 3141
00000070: d9a4 9741 68bb 9c41 7739 8641 6c1d 1e41
00000080: ae56 b941 94ab 8f41 08de 4a41 1a13 9041
00000090: f82d d041 8292 af40 cae8 b341 fca3 cc40
000000a0: 89ee 7641 dbc2 9541 5628 9141 dcf8 8441
000000b0: fbf3 a241 624b c841 d6ca 8741 fd70 8241
000000c0: d944 bb41 a352 f841 f463 a441 096c ab41
000000d0: 6174 bb41 2e4b 9e41 1135 a041 e5c2 c141
000000e0: aed0 7f41 557e b241 23b9 f641 e4af b841
000000f0: bc7f 4741 7dd0 0641 a4ca a741 ad5a 9641
00000100: 80ae 8941 6e70 9141 a8eb 7a41 968d 6241
00000110: a3a3 9241 db46 bb41 796c 8741 ae9c b241
00000120: d7e2 b441 2695 9d41 7560 3541 c54e 9241
00000130: 6976 ac41 e986 b641 98ff ba41 2b93 5641
00000140: ad1f 9b41 0a85 b741 1ba8 2b41 8396 8841
00000150: 4011 b041 850e a041 3c25 a141 50e9 a841
00000160: 51f2 a141 4b85 9c41 ddae a041 fd2d b641
00000170: f110 cc41 3b32 bf41 5d41 ad41 9a0e a741
00000180: 257a 3a41 72c4 ae41 cf45 7e41 e041 9541
00000190: e6a3 a541 9d9b 02c1 03af 9f41 fbb8 9d41
000001a0: 8197 6741 e394 c641 0a3a 9b41 352e 5041
000001b0: c146 7041 aa9d bd41 00a0 9941 acd6 e640
000001c0: be47 ac41 7a62 b741 d8c8 ae41 9110 9941
000001d0: 76a2 b941 7306 9941 b105 c041 f63e b641
000001e0: f224 8541 5c33 1f41 5dca 9a41 70bd ae41
000001f0: 1b59 8641 7c5e f640 8521 c941 5304 ba41

net.5.weight f4 [128]
2.2796843 0.36365634 0.53560936 0.358056 0.19882886 0.34950167 0.70649666 0.48553628
0.13928711 0.257048 0.57416403 0.12904549 0.30988312 2.2312696 0.21264969 0.064089485
0.29550657 0.32705885 0.6639335 0.30110797 0.3985291 0.67436236 2.2227454 1.0436093
0.58057624 0.7835493 0.34840026 0.43429938 0.4438589 0.23458157 1.0212854 0.45253924
0.38201743 0.35541773 0.45585737 0.42891568 0.26720735 2.503879 0.32021657 0.60994685
0.44926855 0.6398891 0.31494597 0.69800276 0.59965473 0.27945024 0.6606238 0.48869967
0.2645618 0.23946713 0.6715883 0.25622958 0.2740781 1.1109451 0.3394378 0.7609859
3.8841798 0.3947776 0.18391225 0.34551662 0.51716435 0.25831366 0.23774657 0.29171395
2.4289443 0.59012485 0.33233213 0.5755693 0.24234892 0.25522465 0.34422687 0.28175896
0.6613761 1.0663574 0.5131568 0.8736629 0.7487202 0.23857021 0.25004554 0.51712245
0.32417563 0.23171939 0.14412569 0.96135646 0.27499485 0.6181409 2.114944 0.2622461
0.381927 0.33843258 0.5164278 0.19912542 0.9438926 0.29594564 0.35166463 0.5038288
0.42580476 0.9904705 0.51976854 1.9843967 0.32388583 3.3784795 0.51651776 0.72939557
1.8438848 0.13028611 0.30305308 1.0556462 0.4637048 0.33647886 0.4877152 0.6126961
0.14495264 0.1391461 0.31729096 0.30846158 0.7471107 0.44451064 0.17210537 0.21763751
0.21210897 0.108509324 0.15554133 2.1771898 0.86472195 0.19932476 0.40676194 0.2767667
00000000: 59e6 1140 2a31 ba3e b21d 093f 1e53 b73e
00000010: cb99 4b3e e2f1 b23e f7dc 343f 3698 f83e
00000020: 48a1 0e3e cc9b 833e 6afc 123f 8024 043e
00000030: 00a9 9e3e 1fcd 0e40 d7c0 593e 5941 833d
00000040: a34c 973e 4274 a73e 8cf7 293f d32a 9a3e
00000050: 020c cc3e 03a3 2c3f 7641 0e40 fd94 853f
00000060: a5a0 143f b096 483f 8561 b23e 7d5c de3e
00000070: 7941 e33e 2736 703e 7bb9 823f 39b3 e73e
00000080: ca97 c33e 50f9 b53e 2366 e93e d69a db3e
00000090: 67cf 883e 8e3f 2040 6df3 a33e 7a25 1c3f
000000a0: 8706 e63e c6cf 233f 9940 a13e 4fb0 323f
000000b0: f982 193f 1a14 8f3e a41e 293f d836 fa3e
000000c0: a574 873e df36 753e 36ed 2b3f 8630 833e
000000d0: f753 8c3e 7333 8e3f cbca ad3e f9cf 423f
000000e0: 6796 7840 4a20 ca3e 7e53 3c3e 8ee7 b03e
000000f0: e264 043f b041 843e d673 733e 885b 953e
00000100: d373 1b40 6c12 173f 7027 aa3e 8258 133f
00000110: 512a 783e ceac 823e 813e b03e b642 903e
00000120: f24f 293f 667e 883f 3e5e 033f 5fa8 5f3f
00000130: 21ac 3f3f c04b 743e f805 803e 2362 043f
00000140: 59fa a53e d947 6d3e af95 133e 751b 763f
00000150: 20cc 8c3e 7b3e 1e3f 3e5b 0740 1f45 863e
00000160: f08b c33e 0947 ad3e 9d34 043f 89e7 4b3e
00000170: f2a2 713f 3086 973e 630d b43e edfa 003f
00000180: 1503 da3e 7a8f 7d3f 8d0f 053f b600 fe3f
00000190: 5dd4 a53e 0239 5840 823a 043f abb9 3a3f
000001a0: 6b04 ec3f b969 053e c629 9b3e 6a1f 873f
000001b0: b76a ed3e f546 ac3e cfb5 f93e a7d9 1c3f
000001c0: 776e 143e 517c 0e3e f673 a23e adee 9d3e
000001d0: a642 3f3f e696 e33e 643c 303e 5edc 5e3e
000001e0: 1833 593e 233a de3d 3a46 1f3e 1457 0b40
000001f0: 6b5e 5d3f ca1b 4c3e 1a43 d03e 5db4 8d3e

net.5.bias f4 [128]
-1.2510294 -0.56256396 -0.20468849 -0.09182147 0.07069164 0.06974505 -0.88293374 -0.26049268
-0.3149746 0.046221383 0.103954054 -0.2586979 -0.6343661 -1.6502082 -0.38176462 -0.24699916
-0.59092283 0.07191222 -0.8631526 -0.6121211 -0.25501716 -0.5494641 -0.5161971 -1.7493544
-0.33871505 -1.2262207 0.060785834 -0.045518458 0.08936269 -0.5150384 -1.0120329 -0.775922
-0.59597033 0.079362 -0.07236592 0.09756339 -0.68547374 -2.0423203 -0.50008357 -0.28931928
-0.6905745 -0.35683343 0.03971269 0.002071375 -0.3830225 -0.79106283 -0.7876282 0.007186054
-0.65989155 -0.8248746 -0.3388189 -0.56977797 -0.64566654 -0.26566172 -0.16622804 -0.9686746
-1.1809347 -0.16172545 -0.67384475 -0.72516096 -0.7937439 -0.5474274 -0.54505193 0.08975602
-0.013426943 -0.03389314 0.010562705 -0.43961853 -0.49931875 -0.74519145 0.0076418626 -0.4036306
-0.8518438 -0.26384225 -0.7107734 -1.4445508 -0.9272279 -0.5980291 -0.616969 -0.081300415
-0.053485624 -0.56667113 -0.3848542 -0.05040744 -0.67500865 0.10510512 -0.57948494 -0.58148414
-0.26518133 -0.2450108 0.02309513 -0.39327455 -1.634063 -0.52771574 -0.7168496 -0.92244315
-0.06572762 -0.74997115 0.053799663 0.029144758 -0.18225887 -0.18676434 -0.3548139 -0.0821205
-1.5612223 -0.6091974 -0.2037067 -0.9517385 0.0948141 -0.688723 0.045292426 -0.18605849
-0.3670546 -0.433867 -0.47645566 0.052550208 -1.2091051 0.11385546 -0.7877496 -0.58763117
0.053211045 -0.25594682 0.07158813 -1.2827518 -1.2571069 -0.34212145 -0.90752304 -0.6015483
00000000: bb21 a0bf 3104 10bf dc99 51be e50c bcbd
00000010: c7c6 903d 7ed6 8e3d f207 62bf 4c5f 85be
00000020: 5a44 a1be a252 3d3d dde5 d43d 0d74 84be
00000030: d165 22bf 063a d3bf a776 c3be 59ed 7cbe
00000040: b846 17bf b746 933d 92f7 5cbf f8b3 1cbf
00000050: 9c91 82be aea9 0cbf 7e25 04bf d8ea dfbf
00000060: 0f6c adbe cdf4 9cbf 91fa 783d 9071 3abd
00000070: c903 b73d 8ed9 03bf 4b8a 81bf d3a2 46bf
00000080: 8391 18bf 8b88 a23d 9534 94bd 51cf c73d
00000090: 357b 2fbf 60b5 02c0 7a05 00bf a821 94be
000000a0: 7ec9 30bf dfb2 b6be c6a9 223d e8bf 073b
000000b0: 861b c4be 1883 4abf 00a2 49bf fd78 eb3b
000000c0: a7ee 28bf fb2a 53bf ac79 adbe f8dc 11bf
000000d0: 674a 25bf d004 88be af37 2abe 0ffb 77bf
000000e0: de28 97bf 5b9b 25be 1781 2cbf 26a4 39bf
000000f0: cd32 4bbf 3424 0cbf 8688 0bbf 01d2 b73d
00000100: aefc 5bbc 88d3 0abd 320f 2d3c ae15 e1be
00000110: b5a6 ffbe dec4 3ebf 9768 fa3b aca8 cebe
00000120: 6f12 5abf 5516 87be 3ff5 35bf 0ae7 b8bf
00000130: cf5e 6dbf 6f18 19bf aef1 1dbf d580 a6bd
00000140: be13 5bbd 5c11 11bf 9c0b c5be 0878 4ebd
00000150: 5ecd 2cbf 5a41 d73d 2059 14bf 25dc 14bf
00000160: d9c5 87be 1ce4 7abe 0032 bd3c 485b c9be
00000170: fa28 d1bf 6118 07bf 7583 37bf 3c25 6cbf
00000180: 349c 86bd 1cfe 3fbf 095d 5c3d fdc0 ee3c
00000190: 12a2 3abe 273f 3fbe 2baa b5be cb2e a8bd
000001a0: 22d6 c7bf 5cf4 1bbf 7d98 50be 22a5 73bf
000001b0: e52d c23d 2750 30bf 8d84 393d 1e86 3ebe
000001c0: 95ee bbbe d123 debe fff1 f3be e33e 573d
000001d0: f5c3 9abf 0d2d e93d f5a9 49bf ff6e 16bf
000001e0: d3f3 593d 760b 83be cc9c 923d 3631 a4bf
000001f0: e1e8 a0bf 8b2a afbe 6e53 68bf 12ff 19bf

net.8.weight f4 [4, 128]
-0.08310102 -0.0016061562 0.24831758 0.20886837 -0.140507 -0.42631325 -0.10671662 -0.18925355
0.06560011 -0.17045853 -0.19245248 -0.19858019 -0.15386082 -0.23714948 0.07777194 -0.2683275
0.015119476 -0.058635503 -0.032695528 0.08298021 -0.37716737 0.22527878 -0.14054559 -0.08097018
0.30675244 -0.26365525 0.036652267 0.14611854 -0.08241309 0.03455466 -0.079578646 0.10443365
0.10710057 -0.071739644 0.08136101 -0.10277848 -1.2091743 -0.10905729 -0.07104517 -0.20484416
0.064667605 0.18723123 -0.71404505 0.14739661 0.07294553 -0.07929513 -0.06515808 0.15863381
-0.006233142 -0.2681691 -0.076256335 0.0101119485 -0.010435683 0.17390707 0.21264976 -0.092240475
0.4985557 0.16501439 -1.1222248 0.036163412 -0.018271534 -0.016978899 -0.025363157 -0.16366397
0.122913554 -0.111355044 -0.09103309 0.16773278 -0.5278973 -0.11446736 -0.46247047 -0.29703286
0.06205513 0.16003962 0.17219105 0.033529624 -0.16567996 0.015901294 0.052741565 -0.05908813
0.17209008 -0.03618959 0.055566296 0.10717637 -0.011387004 -0.1860226 0.3507597 -0.09290393
0.18138625 0.20281838 -0.59540075 0.055631932 -0.04583573 -0.8481107 0.020840012 0.08161347
0.18181954 -0.3497739 0.13203077 0.10969599 0.18186404 -0.2646145 0.08399702 0.26373032
-0.6167085 -0.1283719 0.15252078 -0.26742345 -0.14980571 0.10432328 -0.00789423 -0.03684523
0.079645455 -0.29582405 0.36817938 -0.17548133 -0.21110207 -0.18809971 0.024740916 0.048280615
-0.077568226 0.09082693 -0.11009797 0.20504501 0.060011826 0.05560842 0.28894895 0.059260823
0.18613495 -0.06966479 0.13264701 0.123060174 -0.14171395 0.07384351 0.08116398 0.124772295
-0.27494922 -0.1113139 -0.2683318 -0.024222719 -0.117287725 0.22714972 0.029358076 -0.669586
-0.43852133 -0.12365738 0.07266226 0.06671405 0.0823224 0.08598412 -0.17242669 0.09439931
0.14730358 0.11849238 -0.35624868 0.117976256 -0.2827422 -0.05229214 0.15000997 -1.7097607
0.0892896 -0.23242697 0.12642035 -0.18493262 0.21917495 0.1552957 -0.036164246 0.13364193
0.3745991 -0.77023107 0.07647075 0.07922542 0.15633729 -0.049547125 0.076993234 -0.11659893
-0.08327026 -0.028520864 0.077745415 -0.19925532 -0.024257174 0.19574435 0.10888733 0.09036648
-0.75811446 0.09383593 0.07974102 -0.011211531 -0.4150621 -0.38039395 -0.09355014 -0.18535604
0.1478602 -0.28686696 -0.093831286 0.12903917 -0.009081748 -0.028037101 0.061086435 -0.007333704
0.0961143 -0.39203653 -1.5536318 0.09950171 0.11641272 -0.025057806 -0.06298555 -0.4691686
0.10273094 -0.042979743 -0.5855011 -0.440232 -0.03398915 -0.28165075 -0.6921246 -0.21283178
0.12198973 0.09100825 0.037739914 -0.022050874 0.046310563 -0.021160856 -0.19747527 0.017498538
-0.06429381 -0.012283388 -0.06695607 0.22123262 0.076536104 -1.1393479 0.098809175 0.1336889
0.18548982 -0.01066274 0.12742107 0.16858283 -0.14070119 0.120303474 -0.34955508 -0.7422763
-0.034336723 -0.23374474 -1.0887856 -0.17677875 0.08656948 -0.20670316 0.0034420067 -0.012201904
-0.18039843 -0.4583656 -0.15263563 0.21430603 0.08951845 -1.1072379 -0.014241619 -0.019680506
00000000: de30 aabd a985 d2ba f746 7e3e 97e1 553e
00000010: 11e1 0fbe bb45 dabe 3e8e dabd afcb 41be
00000020: 5a59 863d ae8c 2ebe 4312 45be 9b58 4bbe
00000030: b18d 1dbe 50d7 72be e546 9f3d 3962 89be
00000040: aeb7 773c c82b 70bd bfeb 05bd 87f1 a93d
00000050: 151c c1be 7baf 663e 2feb 0fbe b2d3 a5bd
00000060: a80e 9d3e d2fd 86be b020 163d 19a0 153e
00000070: 32c8 a8bd 3089 0d3d 21fa a2bd 4fe1 d53d
00000080: 8b57 db3d 3cec 92bd 9aa0 a63d 867d d2bd
00000090: 39c6 9abf 6e59 dfbd 2180 91bd abc2 51be
000000a0: 7370 843d 8bb9 3f3e a8cb 36bf 23ef 163e
000000b0: 7764 953d 7c65 a2bd 9971 85bd e770 223e
000000c0: 633f ccbb 764d 89be 482c 9cbd 96ac 253c
000000d0: 6dfa 2abc b214 323e dcc0 593e 93e8 bcbd
000000e0: b142 ff3e 88f9 283e 10a5 8fbf 1620 143d
000000f0: 2fae 95bc 5517 8bbc 65c6 cfbc 8797 27be
00000100: 1aba fb3d 1d0e e4bd 8f6f babd 24c2 2b3e
00000110: 4724 07bf dd6d eabd eec8 ecbe b114 98be
00000120: 852d 7e3d 6de1 233e da52 303e 5c56 093d
00000130: 02a8 29be 6e43 823c 8a07 583d 6506 72bd
00000140: 6238 303e 893b 14bd 7c99 633d 497f db3d
00000150: 8e90 3abc b57c 3ebe c796 b33e 6a44 bebd
00000160: 51bd 393e 9faf 4f3e 2f6c 18bf 4fde 633d
00000170: 3fbe 3bbd c81d 59bf acb8 aa3c f724 a73d
00000180: e72e 3a3e 9115 b3be 1333 073e 4ba8 e03d
00000190: 913a 3a3e 8d7b 87be a106 ac3d a907 873e
000001a0: 9ce0 1dbf ec73 03be 682e 1c3e baeb 88be
000001b0: ab66 19be 72a7 d53d cd56 01bc 06eb 16bd
000001c0: 281d a33d 4076 97be 0282 bc3e 61b1 33be
000001d0: 242b 58be 369d 40be 76ad ca3c e5c1 453d
000001e0: 17dc 9ebd 7803 ba3d 0b7b e1bd 52f7 513e
000001f0: f6ce 753d a8c5 633d 1ef1 933e 7abb 723d
00000200: 299a 3e3e 6aac 8ebd 9ed4 073e f906 fc3d
00000210: 761d 11be 443b 973d 4d39 a63d 9e88 ff3d
00000220: 25c6 8cbe 8bf8 e3bd c962 89be b96e c6bc
00000230: 8c34 f0bd f099 683e 5980 f03c fd69 2bbf
00000240: de85 e0be 1540 fdbd f3cf 943d 60a1 883d
00000250: a598 a83d 7118 b03d 9f90 30be 6d54 c13d
00000260: c0d6 163e 22ac f23d 3a66 b6be 899d f13d
00000270: 96c3 90be 4830 56bd 379c 193e 70d9 dabf
00000280: 77dd b63d 5601 6ebe 5674 013e fa5e 3dbe
00000290: 666f 603e d605 1f3e f620 14bd 6ed9 083e
000002a0: 74cb bf3e dd2d 45bf b29c 9c3d f040 a23d
000002b0: e216 203e edf1 4abd a1ae 9d3d 6bcb eebd
000002c0: 9989 aabd 96a4 e9bc fd38 9f3d 9609 4cbe
000002d0: fbb6 c6bc 3571 483e 5200 df3d 1012 b93d
000002e0: ca13 42bf 0d2d c03d 434f a33d 92b0 37bc
000002f0: 0583 d4be ffc2 c2be 3797 bfbd f9cd 3dbe
00000300: aa68 173e 3ae0 92be 9e2a c0bd d822 043e
00000310: 9dcb 14bc 10ae e5bc c535 7a3d 914f f0bb
00000320: 93d7 c43d 03b9 c8be 68dd c6bf 8dc7 cb3d
00000330: cb69 ee3d 0746 cdbc 91fe 80bd de36 f0be
00000340: 9964 d23d 870b 30bd 66e3 15bf 1766 e1be
00000350: 3538 0bbd 8734 90be 142f 31bf 93f0 59be
00000360: c0d5 f93d 8962 ba3d 2b95 1a3d 09a4 b4bc
00000370: 25b0 3d3d 8859 adbc f536 4abe 1859 8f3c
00000380: 79ac 83bd 4340 49bc 4420 89bd ce8a 623e
00000390: f6be 9c3d 27d6 91bf 775c ca3d bee5 083e
000003a0: 0bf1 3d3e c6b2 2ebc ab7a 023e faa0 2c3e
000003b0: f913 10be ab61 f63d e2f8 b2be d205 3ebf
000003c0: aaa4 0cbd c85a 6fbe 545d 8bbf 7d05 35be
000003d0: 574b b13d fea9 53be 4a93 613b 7fea 47bc
000003e0: 5eba 38be e5ae eabe 844c 1cbe 0a73 5b3e
000003f0: 7355 b73d f9b9 8dbf ae55 69bc 0339 a1bc

net.8.bias f4 [4]
-0.20938219 -0.098607115 -0.28980276 -0.502583
00000000: 4968 56be 87f2 c9bd 0761 94be 48a9 00bf
