models/q_network_a006637e49.pth (torch, 76142 bytes, 10 tensors)

net.0.weight f4 [128, 3]
00000000: 5dc9 6242 0504 3742 f52c e741 f9bd 6242
00000010: 37cf 3642 e3f8 de41 fb81 5442 3b5a 3542
00000020: 09b0 da41 b071 1042 a94c 1642 73bf 8d41
00000030: 4daf 2e42 b363 2342 1725 9f41 1867 6242
00000040: 7413 3742 6e28 eb41 459d 6242 ab0d 3742
00000050: 8a4c e941 222e 1a42 ea07 1542 fcdb 4741
00000060: 76c4 6142 9537 3742 150b f341 aad1 1b42
00000070: 8195 1442 d221 7541 e374 2342 af8a 1742
00000080: 212d 5940 aa7d 6242 5913 3742 1ac5 ea41
00000090: de78 6242 9809 3742 9b35 e941 90e4 1f42
000000a0: be96 1642 f29c 4941 78a6 6242 c5f9 3642
000000b0: 91bf e541 abbb 6242 b70c 3742 5faa e841
000000c0: 7edb 3042 0a93 1142 379d 9d41 63ab 1942
000000d0: 5b3b 1542 e820 7741 dad7 1142 7be0 1642
000000e0: a380 8341 ae13 0342 53a6 1d42 e876 3141
000000f0: f04b 6242 261c 3742 b5f6 ec41 846e 6242
00000100: 79f5 3642 be0b e641 184e 0542 c4e0 1f42
00000110: 33de 3341 8881 2442 c538 1442 a1aa 8241
00000120: f80c 1942 321f 1442 2853 4a41 ca7e 2f42
00000130: cbf9 2442 f271 b441 a774 1e42 3e20 1642
00000140: f58c 4e41 7713 3042 f76d 2442 2566 9d41
00000150: c132 1f42 27a5 1a42 4186 c541 68eb 1a42
00000160: ce5c 1a42 1e33 fe41 b8f9 4e42 0e09 2742
00000170: 9482 e441 7fca 1942 a942 1542 f637 7841
00000180: a860 4842 77dc 3042 1a6c d841 d5e8 2f42
00000190: 7f28 1142 c44a 9a41 4f62 2e42 2f6c 1342
000001a0: 7ad7 8b41 da49 3042 7515 2342 e1ef ab41
000001b0: 273b 2842 9f6f 1b42 f401 1a41 9dba 6242
000001c0: 97e6 3642 ad8d e241 7b6c 6242 4113 3742
000001d0: 04ed ea41 9092 2f42 5d5e 1142 636f 9a41
000001e0: 8883 2842 e92a 0c42 85cc 06c1 3e11 2042
000001f0: f9ba 1a42 1c1e cc41 1553 6242 8225 3742
00000200: f46e ee41 4ecb 1b42 4f86 1542 914c 5541
00000210: 8867 1f42 77a6 1642 cc4f 7541 23fb 2442
00000220: 911d 2242 f614 7c41 2d2d 1842 e2f6 1442
00000230: a874 6941 bc04 1e42 1ded 1a42 d6f2 e641
00000240: 1d4f 6242 0817 3742 6a24 ec41 ae80 0342
00000250: 9ac7 1c42 42a7 3141 2de4 1842 c1d4 1442
00000260: e365 7441 1def 1742 6708 1442 ef99 3b41
00000270: 9392 5d42 fab3 3142 b980 7c42 7e17 0c42
00000280: 928c 1442 25b3 9241 a2b3 6242 7bfc 3642
00000290: 4324 e641 360a 2942 0a17 2242 a61a 8d41
000002a0: e956 1c42 a961 1542 7728 5241 a391 6242
000002b0: b807 3742 8487 e841 963e 1842 b9b5 1342
000002c0: bca8 3e41 c1d8 0442 07d7 1c42 2bcd 3241
000002d0: f3bd 6242 2c00 3742 857c e641 484e 3842
000002e0: 9429 2442 bbfb b541 64cb 3242 ac70 2342
000002f0: 0893 af41 9a4e 1c42 7a07 1642 e6a0 5441
00000300: f065 6242 0ad8 3642 f104 e641 f762 2f42
00000310: cfd4 2342 b53a ac41 6ad9 3c42 b1b9 2942
00000320: b9be d241 4d78 6242 3800 3742 a4a4 e741
00000330: 9faf 6242 7ecf 3642 35aa df41 ab0f 2142
00000340: 1edc 1642 821b 5841 fd78 3f42 268a 1f42
00000350: 130c c841 9520 3042 4222 1142 26e1 9841
00000360: 0d62 3742 7947 2042 78b7 b541 8e70 1442
00000370: 7906 1542 b018 5d41 e0df 2f42 c58a 1042
00000380: 35ee 9941 9697 6242 7af3 3642 a420 e541
00000390: cdd6 2642 b2fd 2242 84ea 8541 b641 2642
000003a0: 9715 2542 661e 7941 ef08 1942 0539 1542
000003b0: 7777 7141 9224 2e42 429b 2142 790e e540
000003c0: 6b8b 6242 3407 3742 8dc3 e841 1817 6142
000003d0: b876 3642 7806 e541 2c08 0442 b7e5 1c42
000003e0: 025d 3341 e1b0 3942 0892 1142 a75a 7f41
000003f0: 106b 3942 1ac3 2442 c107 b841 ff96 6242
56.696644 45.753925 28.896952 56.68552 45.70236 27.871527 53.126934 45.338116
27.335955 36.111023 37.574863 17.718481 43.671192 40.847363 19.89311 56.600677
45.768997 29.394741 56.653584 45.763348 29.162373 38.54505 37.25773 12.491207
56.441856 45.80428 30.380411 38.95475 37.146 15.320757 40.864147 37.885433
3.3933794 56.62272 45.768894 29.346241 56.618034 45.75937 29.151175 39.973206
37.64721 12.600817 56.662567 45.743916 28.718538 56.68327 45.762417 29.083189
44.214348 36.393593 19.701765 38.41737 37.307964 15.445534 36.460793 37.71922
16.43781 32.76922 39.412426 11.09153 56.574158 45.77749 29.620462 56.607925
45.73972 28.755733 33.326263 39.969498 11.241748 41.126495 37.05544 16.333315
38.262665 37.030464 12.645302 43.873817 41.24394 22.555637 39.61392 37.531487
12.909413 44.01901 41.107388 19.674875 39.799564 38.66128 24.690554 38.72989
38.59063 31.77496 51.743866 41.758842 28.563759 38.44775 37.315098 15.513662
50.09439 44.215298 27.052784 43.977375 36.289547 19.286507 43.596004 36.855648
17.480213 44.07212 40.770954 21.492128 42.057766 38.859005 9.625477 56.68224
45.725185 28.319178 56.605938 45.768803 29.36573 43.893127 36.34215 19.304388
42.12845 35.041904 -8.424932 40.016838 38.68259 25.514702 56.581135 45.78663
29.804176 38.94854 37.38116 13.331193 39.851105 37.662563 15.331982 41.24525
40.528873 15.755117 38.044117 37.241096 14.590981 39.504623 38.731556 28.868572
56.57726 45.77249 29.51778 32.875664 39.194923 11.103334 38.222828 37.207767
15.274875 37.98351 37.008205 11.725081 55.39314 44.42576 63.125706 35.02294
37.137276 18.337473 56.675423 45.746563 28.767706 42.25997 40.5225 17.638012
39.084873 37.34537 13.134879 56.642223 45.757538 29.06617 38.06112 36.927464
11.916195 33.211674 39.209988 11.17509 56.685497 45.750168 28.8108 46.076447
41.040604 22.747915 44.698624 40.86003 21.946793 39.07676 37.5073 13.289282
56.59955 45.710976 28.752413 43.846645 40.95782 21.528666 47.21232 42.43134
26.343126 56.61748 45.750214 28.95539 56.671505 45.70263 27.958109 40.2653
37.71496 13.506716 47.868153 39.88491 25.005896 44.03182 36.283455 19.109936
45.845753 40.069798 22.714584 37.109917 37.25632 13.818527 43.968628 36.135517
19.241312 56.648033 45.73777 28.640938 41.709766 40.74775 16.73951 41.56417
41.271084 15.5699215 38.258724 37.305683 15.091666 43.535713 40.40162 7.1580167
56.63615 45.757034 29.095484 56.272552 45.615936 28.628159 33.00798 39.22433
11.210207 46.422733 36.39261 15.959632 46.354553 41.19053 23.003786 56.647457

net.0.bias f4 [128]
00000000: c3f9 3842 9aca 3a42 c135 3442 dc90 6042
00000010: 3191 1642 d9e3 3e42 7890 3b42 eeb7 e540
00000020: 9897 4842 baf8 8842 61f9 1a41 db7b 3d42
00000030: 0bf9 3d42 61e2 ed40 146c 3b42 8dab 3942
00000040: f4bc 4a42 5ecd 8e42 aecf 6242 6e9a 6f42
00000050: af6c 4042 8111 3f42 9609 4d42 57f9 6f42
00000060: fa20 b940 6af5 1c42 1b33 ff40 263f 1542
00000070: 85ab 7142 82c0 6142 2157 5442 9044 8a42
00000080: eb94 2642 dfb5 4b42 4cbf 4242 8c19 3742
00000090: 8506 8d41 c883 3a42 7a8b 3e42 250f 4b42
000000a0: bafa 7942 237f 7042 92c4 3f42 33b9 e040
000000b0: 78c1 6e41 9efc 0242 0e38 8f42 046d 5542
000000c0: 3859 4042 059e 7942 1903 8e42 823d ab40
000000d0: e991 3242 2e96 6442 6786 3a42 334e 0b42
000000e0: 9dfd e140 026a 3c42 93ba ac40 4b01 7a42
000000f0: a2cc 3942 56ba 4342 3786 4042 820f 0f41
00000100: 0417 4042 9c54 3142 48a1 6e42 a537 3e42
00000110: 0aaf 3b42 2414 0541 cd65 4942 ef21 4942
00000120: b315 3842 4f9d 8f42 82cc 4a42 9087 3c42
00000130: 6f89 0342 3b6f cc41 2de5 8e42 3f5e aa41
00000140: b5cf 3c42 563d 5742 878c 7942 9371 6242
00000150: becc 4542 cb1a 3c42 89dc 0241 e8cc 5e42
00000160: 9d5a aa40 b0e0 0e41 8329 3d42 a7af 2e42
00000170: 52ba 3d42 f1e5 3842 16c5 3642 2ca0 3142
00000180: cf90 3e42 e307 3c42 96c8 4942 1af8 1741
00000190: 6a5d 4942 ee08 2741 30a4 e940 d99a 3b42
000001a0: f9c3 5342 60eb 8f42 17e5 7942 659c 3b42
000001b0: bc9c 1242 b0ba da41 6c96 4042 74b7 3c42
000001c0: 1f6b 3d42 4a65 cb41 a613 7042 47f1 e240
000001d0: b8ad b340 b1bd 3d42 4110 0641 f27f 3c42
000001e0: 57b0 4242 ee57 cc41 eb60 4442 e37e 6342
000001f0: aa29 9042 44ed 3f42 e50a 5e42 c084 6342
46.243908 46.697853 45.052494 56.141464 37.64179 47.722507 46.891083 7.1787024
50.14804 68.485794 9.6858835 47.370953 47.493206 7.433884 46.855545 46.41753
50.684525 71.40111 56.702812 59.90081 48.106136 47.767094 51.25936 59.993496
5.7852755 39.239662 7.9749885 37.31167 60.4175 56.437996 53.085087 69.13391
41.645428 50.92761 48.686813 45.77495 17.628183 46.628693 47.636208 50.76479
62.49485 60.124157 47.941963 7.0226073 14.922234 32.746696 71.60948 53.35646
48.087128 62.404316 71.00605 5.3512583 44.64249 57.14666 46.631252 34.826366
7.0622087 47.103523 5.397775 62.501263 46.449837 48.93197 48.13107 8.941286
48.022476 44.332626 59.6575 47.55434 46.920937 8.317417 50.349415 50.28314
46.02119 71.80724 50.699715 47.132385 32.884212 25.554312 71.44761 21.296019
47.20284 53.8099 62.387234 56.610912 49.449944 47.026165 8.178842 55.700104
5.323561 8.929855 47.29054 43.671535 47.431953 46.224552 45.692467 44.406418
47.641415 47.0077 50.445885 9.498072 50.341225 10.43968 7.3012924 46.90122
52.94138 71.95972 62.47372 46.90273 36.65306 27.341156 48.146896 47.179153
47.35461 25.424458 60.019188 7.091953 5.614956 47.435246 8.378968 47.124947
48.672207 25.542934 49.094646 56.873913 72.081375 47.981705 55.51064 56.87964

net.1.weight f4 [128]
00000000: fadd d23e 23bf a13e 5c57 b540 10a0 6741
00000010: 8428 b141 5275 853e 6b11 5d3f 1b58 5740
00000020: 020e eb3f a9f4 8d40 1c8d 8340 f317 f83e
00000030: ffcf 6f3e ab78 6540 7b1d b23e 5f86 af3e
00000040: be9c 2f41 b0b4 8240 6a7e 9941 ea48 6540
00000050: cda7 913e 0bbb 893e 4caf 7940 fedd ac40
00000060: b849 6140 db7b 2142 47d0 6040 8dc2 a441
00000070: 6b29 a940 b704 bf40 da68 c240 8b05 8540
00000080: 9550 0641 8e84 2741 08d8 4a41 2e11 1a42
00000090: c8a1 8b40 6777 963e 0f9f eb3e 5ab6 2541
000000a0: b05f 8740 742d b840 70a7 9b3e 8208 5f40
000000b0: 1960 8040 b67a ee40 85ed 7d40 56b2 fe40
000000c0: 52cb 9f3e 14e6 5440 dec5 8140 8a5b 5c40
000000d0: cad7 f33f 2f2d 3241 58aa 073f 5c94 5041
000000e0: 5031 5c40 9abf c23e 2260 5d40 bbec 5a40
000000f0: 99df f83e 38ec 2a42 4f39 1d42 fff4 5b40
00000100: 66b3 1140 5907 0b42 1ff6 1e41 108c 343e
00000110: 6bea 783e 7940 6740 6728 6941 d2d9 2f41
00000120: 40f8 0142 45ca 6f40 4e74 2341 1df3 993e
00000130: d2d5 ea40 5334 9440 8b12 8240 6750 9640
00000140: 31df 963e 9fcf 2a3f 56c4 5740 f63f a540
00000150: 0831 e341 f076 b53e 1d55 6940 4b07 6e40
00000160: d844 5f40 c0d4 6c40 345d ed3e bc05 e441
00000170: b7e2 2642 b25e bc3e b167 373e 8dd0 fa3f
00000180: 33e0 513f 94fd 6b3e 813f b141 07fa 8140
00000190: 794d 2341 d197 8640 e340 6a40 84db 4e3e
000001a0: 2c29 1842 eb61 6e40 c1bc 5e40 b00f a23e
000001b0: 0a33 8b41 c864 c840 bf5c ab3e 474d ee3e
000001c0: 2d27 953e 4805 9240 4464 6840 00c7 6940
000001d0: 0c33 5b40 a76e 653e 6aad 6540 e2f8 843f
000001e0: 649c 493f 7199 9040 7028 093f c4e7 7d41
000001f0: 58be 7640 9786 5d3e 148c c940 5202 9441
0.4118498 0.31591138 5.666914 14.476578 22.144783 0.2606607 0.863547 3.3647525
1.836365 4.4361157 4.1109753 0.48455772 0.23419188 3.58549 0.34788117 0.34282205
10.975767 4.0845566 19.186726 3.5825753 0.28448334 0.26900515 3.9013243 5.4020987
3.5201244 40.370953 3.5127122 20.594995 5.286306 5.9693255 6.0752993 4.1569266
8.394673 10.469862 12.677742 38.516777 4.3634987 0.29387972 0.4601979 10.357019
4.2304306 5.7555485 0.30401182 3.4848943 4.0117307 7.4524794 3.967622 7.9592695
0.3120981 3.3265429 4.0554037 3.443087 1.9050229 11.136031 0.529943 13.036221
3.4405098 0.38036805 3.4589925 3.420699 0.4860809 42.730682 39.305965 3.4368284
2.2765746 34.757175 9.935088 0.17631555 0.24308173 3.61331 14.572364 10.990679
32.49243 3.7467206 10.215895 0.30068293 7.338601 4.631387 4.0647635 4.6973147
0.29467157 0.66723055 3.3713584 5.1640577 28.398941 0.35442305 3.64582 3.7191951
3.488577 3.7004852 0.4636017 28.5028 41.7214 0.36790997 0.17910649 1.9594895
0.81982726 0.23045951 22.156008 4.061771 10.206414 4.2060323 3.6602104 0.20200926
38.040207 3.7247264 3.4802706 0.31652594 17.399921 6.2623024 0.33469197 0.46543333
0.2913145 4.5631447 3.6311197 3.652771 3.4249907 0.22405492 3.5887094 1.0388453
0.7875426 4.5187306 0.5357733 15.869083 3.8553677 0.21633373 6.2983494 18.501133

net.1.bias f4 [128]
00000000: 1e52 3fbf 896f 16bf e4bd b1c0 681f 6b41
00000010: 83d5 ae40 f193 3cbf eb0a bebf c2f2 6f40
00000020: d350 28c0 7d62 4a40 60ee 6040 ffb6 56bf
00000030: e379 3bbf f7b5 5940 35f3 1cbf 8db8 26bf
00000040: e341 0a40 32df 4740 21e1 9541 3ed5 9540
00000050: 63a8 45bf 1fda 42bf fbd6 9f40 5ca3 2b40
00000060: 838a 8340 a840 f240 0482 6140 b36b 8840
00000070: 1914 4b40 9a04 8340 03e0 95c0 7287 4840
00000080: 4f57 9fc0 e94a 1740 6ba6 5d40 fa5b b440
00000090: 14f2 3140 f843 2cbf 77d4 4fbf 53ae 1940
000000a0: 9b42 0640 74b8 5040 0378 3ebf 617b 6d40
000000b0: 023c 6e40 5cbb 8340 9d3e 4e40 d1f0 a340
000000c0: d9e9 35bf 1184 8a40 e3a7 4940 3ab1 8340
000000d0: 3672 0dc0 d325 4b41 38c7 64bf de16 b340
000000e0: a150 6b40 b222 26bf 563f 8340 8b25 8a40
000000f0: 16e3 4fbf e01b 68c0 c5ea 3640 6307 6740
00000100: 5173 42c0 c50b ba40 2a95 66c0 13f1 46bf
00000110: 3f08 e7be d837 5240 bcaa 82c0 9d16 1b40
00000120: 86c6 0abf 44a3 5640 657e 1040 e2c9 25bf
00000130: f30b 6940 31c9 2240 1a68 4840 b934 fd3f
00000140: f20c 28bf 594c 8bbf a691 8a40 5a3d 753e
00000150: 9c9b 65c0 6648 21bf f27e 4d40 1fc1 9640
00000160: 5fe4 8540 a0fe 4a40 0224 49bf 20ce b440
00000170: 89ee 8640 394a 49bf d726 babe ebb6 0ec0
00000180: 4d5d afbf 4e54 21bf 3f1a b7c0 9e62 6640
00000190: 04f2 1a40 4d9d 5840 0743 6740 71ee f5be
000001a0: f5b1 3241 1231 5640 e405 8a40 20c7 1ebf
000001b0: 58de a840 43ae 3140 c2b4 2fbf 2a41 45bf
000001c0: ea66 27bf 4c01 1e40 dc3c 9240 504d 7140
000001d0: 058d 8240 0a84 2cbf c5cd 5740 f563 d8bf
000001e0: 3771 97bf 765b 1740 8be1 6abf 68d2 8541
000001f0: d31e 4e40 6fab 10bf ef9d 8d40 e094 9241
-0.74734676 -0.5876394 -5.55443 14.695168 5.4635634 -0.7366324 -1.4847082 3.7491918
-2.629933 3.1622612 3.5145493 -0.8387298 -0.7323286 3.4017313 -0.61308604 -0.6512535
2.1602714 3.1229978 18.734926 4.6822805 -0.7721006 -0.76114076 4.9949927 2.6818457
4.110658 7.5703926 3.5235605 4.263147 3.1731017 4.0943117 -4.683595 3.133267
-4.979408 2.3639472 3.4632823 5.6362276 2.7804003 -0.6729121 -0.8118357 2.401265
2.0978153 3.2612581 -0.74401873 3.7106555 3.7224126 4.116621 3.2225716 5.1231465
-0.7105995 4.3286214 3.150872 4.115384 -2.210096 12.696734 -0.89366484 5.5965414
3.6767962 -0.6489669 4.1014814 4.317083 -0.8120588 -3.6267014 2.8580792 3.6098258
-3.0382884 5.8139367 -3.6028543 -0.777116 -0.4512348 3.2846584 -4.0833416 2.4232552
-0.5420917 3.353715 2.2577145 -0.64761174 3.6413543 2.5435297 3.1313539 1.9781715
-0.6564475 -1.0882674 4.3302794 0.23949185 -3.5876226 -0.63001096 3.2108731 4.7110744
4.1841273 3.171791 -0.7857057 5.6501617 4.216618 -0.7862888 -0.36357757 -2.2299144
-1.3700348 -0.63019264 -5.721954 3.599769 2.4210215 3.3846009 3.613466 -0.4803348
11.168447 3.346745 4.313219 -0.6202259 5.2771416 2.776261 -0.6863519 -0.7705256
-0.6539141 2.4688292 4.569929 3.7703438 4.0797143 -0.67388976 3.3719342 -1.6905504
-1.1831425 2.3649573 -0.917504 16.727737 3.2206314 -0.56511587 4.425529 18.322693

net.4.weight f4 [128, 128]
00000000: 6cb2 75be 726a a1bd e4bf 17c1 7c4e a941
00000010: ed75 38c1 ffd2 c5bc 0ad7 e23e 2723 cbc0
00000020: 210e 1ebf 242d a241 3f7b 43c1 d763 ddbe
00000030: 49c6 093d 05c1 6ac1 c97b e83d 295d 4f3c
00000040: 32d8 29c1 a3d8 b541 ce87 b141 5c96 5e41
00000050: 1197 f43c 1ab8 af3d 3a99 3e41 7933 1a41
00000060: 75d0 0dc1 f2a0 f540 369d 57c1 def6 7bc1
00000070: b167 e740 13a6 af40 cd3c cdc1 d52a b141
00000080: 853f 31c1 cd7b 0dc1 2372 37c2 dee8 b540
00000090: fcf1 16c0 83a8 3e3e ec2e 963e 641a 26c1
000000a0: f864 2841 81c6 d340 40e3 a63d 7d26 1ec1
000000b0: 87f1 6ec0 7c9a afc0 b202 b641 8794 8e40
000000c0: 6d1b 863d 209f 5e41 2756 ad41 183a f9c0
000000d0: 1e3e 2441 a1b0 9b41 e20a 69be c7a4 79c1
000000e0: 42d2 19c1 8bde a53e bea5 04c1 8cb6 5b41
000000f0: df5e 8fbe eb8e 2241 e732 1f41 9c0f a9c0
00000100: 4f56 c33e 9bb4 8340 86dd 9941 0c06 8bbc
00000110: f955 3d3e dce1 68c1 d8c6 27c2 379f 10c1
00000120: de43 89c1 80d0 8941 25ce 3ec1 6152 64bb
00000130: e792 26c0 147f 4541 c879 b041 4c62 2dc0
00000140: 2a8a 5dbc ec8c 9c3d 2ea1 6141 d25f 9f40
00000150: 73da 5541 c03c 0f3d b487 4dc1 61c8 7b41
00000160: 563a b2c0 097c 33c1 9400 d9be 916f 4d40
00000170: b435 ab40 6d2f 8dbe 7738 1bbf 8bc8 3b41
00000180: 2d71 703f a172 b83d d813 5541 3739 43c1
00000190: d855 c3c1 9f9e 4ec1 9aa8 75c1 340a 673d
000001a0: 521f 6941 0b39 8b41 9e27 5b41 11ea aebc
000001b0: 3a5a 36c1 8d0e 18c0 a0d0 0d3f 525c 3538
000001c0: 7137 a5bd e8ca 4941 91e3 5941 0b9f 60c1
000001d0: d03b d8c0 4022 c7bb 14ad 4ec1 c908 5540
000001e0: a34d e0bf d6a0 5941 85c7 3cc0 ce56 a541
000001f0: eb9c 8941 83b5 98bd 34c9 7b40 586f ab41
00000200: 84c8 833e ff32 84bf 86b1 4841 ecae 9c41
00000210: acb5 7341 2e21 8e3d bf36 083f b95d 8341
00000220: c252 3940 af64 4341 c6dd 6741 91d3 ab3e
00000230: c2b3 bf3d dccc 6d41 3eae da3d db3a 3d3e
00000240: 64d4 3541 83e7 6941 adb0 9941 3ad6 c340
00000250: 34a1 c13c bdd5 e5bd 2c18 fe40 47c4 1c41
00000260: 048b 8741 6ac0 e3c0 68e4 8141 61a9 9041
00000270: 05fd 1c40 2384 043e e0f1 b342 d7f7 5c41
00000280: 10a7 5341 4e85 3741 479d 9e41 c0d0 84c2
00000290: c5b4 7441 6d89 283d ea00 e4bf c265 3641
000002a0: 53b6 6d41 4bb4 9140 50ee 503e a3d4 8441
000002b0: 225e 7a41 f8dd 8841 acf0 5b41 2fc9 c73f
000002c0: 86d6 2e3e ffd0 c540 2381 6041 4c42 8041
000002d0: 2693 1641 7c89 9341 7d7b c4bc 0f73 9241
000002e0: 9f31 7241 5451 1ebc de82 7b41 8f5f cc40
000002f0: 943a f73e aa79 1342 042c 9e41 1609 8741
00000300: 19ec 8e40 cf17 8ac2 2438 c241 329f cabc
00000310: ae37 13be db47 7741 5841 4542 69d7 1941
00000320: d9cf 1142 22f8 2141 d9fd 1a41 7af5 633e
00000330: 639b 9341 dfd9 6941 73e8 5841 1347 5b41
00000340: 5e83 643e 8d1d 5340 133f cf40 486c 7241
00000350: 408e 3642 bf96 00bc 42c5 6f41 4ab5 cb40
00000360: f20d 8041 8eb3 7841 b902 81bd 22e7 6ac2
00000370: ddff b1c0 a6a7 52bd e72b 463f c879 0341
00000380: 6d72 2740 2c19 703d f896 3b42 a07d 6a41
00000390: 3cd5 4141 c3fe 5e41 f25c 6141 7009 353e
000003a0: 8f87 1741 3fc5 1f41 be04 be40 2df1 0d3c
000003b0: b953 8d41 0b9a 7641 fed2 963e 38cf 33bf
000003c0: 3243 a63d 2c97 6b41 8df3 c140 6d1c 7b41
000003d0: 79bf 8141 1113 aa3d 942e 6641 1308 a740
000003e0: 5378 9c40 cb2f 7841 18cc b53f bfb9 9c41
000003f0: 2fed 2e41 3912 873e 1db0 ca3f 80e9 9841
-0.23993844 -0.07881631 -9.484348 21.163322 -11.52879 -0.024148462 0.44304687 -6.348041
-0.6174031 20.272041 -12.217589 -0.43240234 0.033636365 -14.672124 0.11351735 0.012656488
-10.615282 22.73078 22.19131 13.911709 0.02985719 0.085800365 11.912409 9.637567
-8.863393 7.6758966 -13.475882 -15.74777 7.2314076 5.4890227 -25.654688 22.145914
-11.078008 -8.842725 -45.86146 5.684676 -2.3585196 0.1861897 0.29332674 -10.381443
10.524651 6.6179814 0.08148813 -9.884397 -3.7334917 -5.487608 22.751316 4.455631
0.065482 13.913849 21.667067 -7.7883415 10.265165 19.461245 -0.22758058 -15.602729
-9.613832 0.3239635 -8.290464 13.732067 -0.28002068 10.159892 9.949927 -5.2831554
0.38151786 4.1157966 19.233166 -0.016970657 0.18489827 -14.555141 -41.944183 -9.038871
-17.158138 17.226807 -11.925328 -0.003483914 -2.6027162 12.343525 22.059464 -2.7091246
-0.01352171 0.07644066 14.1018505 4.980447 13.365832 0.034970045 -12.845631 15.736421
-5.569621 -11.217782 -0.42383254 3.2099345 5.3503056 -0.27575245 -0.60633034 11.736461
0.9392269 0.09006239 13.317345 -12.201468 -24.416916 -12.913726 -15.3536625 0.056406215
14.570147 17.402853 13.697172 -0.021351846 -11.397028 -2.375888 0.5539646 4.3239743e-05
-0.08067215 12.612038 13.618058 -14.038829 -6.7573013 -0.006077081 -12.917255 3.3286612
-1.7523693 13.601767 -2.9496777 20.667385 17.20162 -0.074564956 3.9341555 21.429367
0.2573892 -1.0328063 12.543341 19.585411 15.2318535 0.06939922 0.53208536 16.420763
2.8956761 12.212081 14.491644 0.3355985 0.09360458 14.8625145 0.10677765 0.18479483
11.364353 14.619021 19.211267 6.1199007 0.023636438 -0.11222408 7.9404507 9.797919
16.942879 -7.117238 16.236526 18.082705 2.452943 0.12941031 89.97241 13.810508
13.228287 11.470045 19.826796 -66.407715 15.294133 0.041146684 -1.7812779 11.399843
14.857013 4.5532584 0.20403409 16.603827 15.647982 17.108383 13.746258 1.5608271
0.17074022 6.181762 14.0315275 16.032372 9.410925 18.442131 -0.023984665 18.306181
15.137115 -0.009662945 15.71945 6.386665 0.4828688 36.868813 19.771492 16.879436
4.4663205 -69.0465 24.277412 -0.024734113 -0.14376709 15.455043 49.313812 9.61509
36.452976 10.123079 9.686975 0.2226161 18.450872 14.615691 13.55675 13.704852
0.22315738 3.2986786 6.4764495 15.151436 45.638916 -0.007848441 14.985659 6.36588
16.00681 15.543837 -0.062993474 -58.725716 -5.5624833 -0.051429413 0.7741074 8.217232
2.616359 0.058617756 46.89743 14.65567 12.114559 13.937198 14.085192 0.17679381
9.470595 9.985656 5.938079 0.008663458 17.66588 15.412608 0.2945785 -0.70238066
0.08118285 14.724407 6.0609803 15.69444 16.218493 0.08304418 14.386372 5.2197356
4.889688 15.511668 1.420291 19.590696 10.932906 0.2638109 1.5834996 19.114014

net.4.bias f4 [128]
00000000: b2a2 f83f cf7f 5141 fa5b 9e41 844f 8141
00000010: cc36 9e41 65a4 9f41 18a9 7e41 1cd0 6d41
00000020: d66d a641 9732 7541 8665 5841 c304 9041
00000030: b18c 8741 0796 9241 2cca ad41 d6e6 8d41
00000040: 6be0 9c41 2223 8b41 1f18 9141 60ec bb41
00000050: 2af3 7541 c2fd 8441 c1c9 8341 191c 9041
00000060: 2a09 c541 f521 7641 de1b 5c41 cdd5 9241
00000070: 66bf 8441 23e0 a441 954d d041 84d5 9541
00000080: 7811 6341 e084 9941 1b34 9b41 030d 9941
00000090: 0b15 9241 53aa 4c41 59b5 9341 6c78 d441
000000a0: ba29 9141 3300 1a41 5884 ad41 76d0 0841
000000b0: 8c68 6941 2277 9f41 315f 8f41 d801 8741
000000c0: 1567 8641 8b36 8441 63b8 9e41 d1a2 3241
000000d0: d356 7741 4025 bb41 d043 4241 7315 ae41
000000e0: d4df 9f41 644f b441 34d0 7d41 9a1a a541
000000f0: 2b4d 9a41 2f5f 9e41 60d8 9341 cf03 1241
00000100: da27 b241 ad7e 9d41 df75 48c0 2f68 8841
00000110: cf93 6741 c785 a741 b2c2 9e41 c9e9 9b41
00000120: 9dc4 7b41 e119 9b41 3dfe 8641 3562 8c41
00000130: ee6d 6141 3528 8e41 fd51 9341 0907 9241
00000140: 3b2e 9941 f099 8c41 47ec 8141 8e29 9c41
00000150: b434 8c41 b4da 8e41 aba5 4c41 2ee3 a141
00000160: c238 6c41 69a8 6041 c1d9 0040 d6a6 9c41
00000170: a3b1 b541 69ce 4b41 38a7 af41 1007 9541
00000180: 639e 9641 69d9 8d41 8dec 8741 3513 3941
00000190: 086d 7741 274a 8441 614b 6d41 8b7f b141
000001a0: d999 8b41 b01c 8e41 0d77 a641 a465 0641
000001b0: a3bb 9b41 c6a0 b541 4321 d2c0 16a6 a441
000001c0: f0f1 6141 4394 6f41 adad a041 96e9 9141
000001d0: e1bc 7541 8db5 8141 0d63 a041 01c9 8041
000001e0: e378 8b41 1159 0141 1b66 9f41 e75c 3141
000001f0: c054 8241 9c87 9e41 e6ee 9c41 485d 8841
1.9424651 13.093703 19.79491 16.163826 19.776756 19.95527 15.916283 14.863308
20.80363 15.324851 13.524786 18.002325 16.943697 18.323256 21.723717 17.737713
19.60958 17.392155 18.136778 23.490417 15.371866 16.623905 16.473513 18.01372
24.629475 15.38329 13.7568035 18.354395 16.593456 20.609442 26.037882 18.729256
14.191765 19.18988 19.400442 19.131353 18.260275 12.791583 18.463549 26.5588
18.145374 9.625049 21.689621 8.550894 14.588024 19.93317 17.92148 16.8759
16.800333 16.526632 19.840033 11.16475 15.458697 23.393188 12.141556 21.760473
19.984291 22.538765 15.863331 20.637989 19.28768 19.796476 18.480652 9.12593
22.269459 19.686853 -3.1321943 17.05087 14.473586 20.940321 19.845066 19.489153
15.735501 19.387636 16.87414 17.547953 14.089338 17.769632 18.415033 18.253435
19.147573 17.575165 16.24037 19.52029 17.525734 17.856789 12.790446 20.235928
14.763857 14.041116 2.0132906 19.581463 22.711737 12.737893 21.95665 18.628448
18.827337 17.731157 16.990503 11.567189 15.464119 16.536207 14.830903 22.187277
17.45012 17.764008 20.80813 8.399815 19.46662 22.703503 -6.5665603 20.581097
14.121567 14.973697 20.084803 18.239056 15.358613 16.213648 20.048365 16.098146
17.434027 8.084245 19.924856 11.085181 16.291382 19.816216 19.61665 17.045547

net.5.weight f4 [128]
00000000: 7ca2 d23d af76 d93e 29ad 503f 498f 283e
00000010: d568 a03e 73ed b23e 4361 f83e 6fe4 d13e
00000020: d5d0 0e3f 519b cc3f d525 513f 65bb a93f
00000030: 1eb3 0d3f f7d0 c83e 660a 2d3f a142 983e
00000040: 0086 bc3e b036 263f 226d 643e 2b13 313f
00000050: bd4f c73f 5795 153f d643 923f 1e0d f23f
00000060: b182 513e 7b10 683e 0d92 893e a2da bf3f
00000070: eef0 6b3f aec6 2c3e ec6e da3d 0f1e 973e
00000080: 3d54 003e c060 803e d476 cf3e 3357 873e
00000090: 651a ab3e ec02 af3e 26c8 4c3f 5bbf 043e
000000a0: bbfc 0d40 7780 0d3f 882b 083f 4f87 b23d
000000b0: 8e27 6b40 f0ae 1240 c9d1 b83e bf61 c43e
000000c0: 3e2e 7b3f 201c a63e aca9 af3e 8569 283e
000000d0: ac61 f83e 1b6c 603e e5fc a03e 4c7e 453f
000000e0: 8e44 803e 09fe e83e d761 b83e 8c66 b53e
000000f0: 550b af3e 2371 0440 fd84 ab3e 2a6d c33e
00000100: 182f 443f 100a cc3e 7c7d 6e40 5cec ac3e
00000110: f16d 993f 3cf7 a63e 6b0a aa3e 23f3 983e
00000120: ee1d b93e a7f4 bb3e 3b04 753e 398f 0e3f
00000130: e08f 313f 1d0c 8e3e 3ece f93e a37f ff3e
00000140: 74a7 543e 77dd f73f 5ba8 1e3e daac ed3e
00000150: a096 a23f 941c b33d 0ce2 003f 4033 913e
00000160: 0fae 653f 52d3 0a3e bef2 e33e c3cc a83e
00000170: a619 243f c71c b53e a1fc bb3d bf94 033f
00000180: 7fef b23e 8760 8f3e 722e 913e 0c04 de3e
00000190: 27b7 153e f3ee 0440 1f66 0c3f 08a7 403f
000001a0: b741 003e e47a 1740 069f 383f 4677 1e40
000001b0: 9f7c 873e c4af 2c3f 2a0a f93e 8db2 353e
000001c0: a28b 643f 2663 cd3e 005c a13e cf93 2540
000001d0: df25 a73e 3958 9d3e 575e 823e 0231 a13f
000001e0: 3ea3 ef3e 73b3 cc3e bb7d 813e f146 113f
000001f0: 6fb7 3b3f 79ed 3b3f d329 613f 7f87 843f
0.10284898 0.4247336 0.8151422 0.16460909 0.3132998 0.34946784 0.48511705 0.40994594
0.557874 1.5984899 0.8169835 1.3260313 0.55351436 0.39221928 0.6759399 0.29738334
0.36820984 0.64927197 0.22307256 0.69169873 1.5571209 0.58431 1.1426952 1.8910253
0.20460011 0.22662537 0.2686924 1.4988596 0.92164505 0.16872665 0.10665688 0.2951512
0.12532134 0.25073814 0.40520346 0.26433715 0.33418575 0.34181917 0.799929 0.12963621
2.2185504 0.55274147 0.53191423 0.08717214 3.6742892 2.2919273 0.36097553 0.38355824
0.98117435 0.32443333 0.34309137 0.16446503 0.48512018 0.21916239 0.31442943 0.7714584
0.25052303 0.45506313 0.36012146 0.354298 0.34188333 2.0694053 0.334999 0.38169223
0.7663436 0.39851427 3.726409 0.33774078 1.1986676 0.326105 0.33211073 0.29873
0.36155647 0.36710092 0.23927395 0.5568729 0.6936016 0.27743617 0.48790163 0.49902067
0.20767003 1.9364461 0.1549391 0.46420938 1.2702217 0.08745685 0.5034492 0.28359413
0.8971872 0.13557175 0.44521135 0.3296872 0.64101636 0.35373518 0.091790445 0.51398844
0.34948346 0.28003332 0.28355747 0.43362463 0.14620648 2.0770843 0.54843324 0.7525487
0.12525068 2.3668756 0.7211765 2.4760299 0.26462266 0.674557 0.48640567 0.17743893
0.8927556 0.40114707 0.31515503 2.5871465 0.3264608 0.3073137 0.254626 1.2593081
0.4680423 0.3998066 0.25291237 0.56748873 0.7332677 0.7340923 0.87954444 1.035385

net.5.bias f4 [128]
00000000: 37c2 d1bd 3649 06be ce21 a2bf a84d ffbe
00000010: 5fe2 2abf e264 25bf d01e ccbe 21c4 18bf
00000020: 9ddd 35be 1f8d d7bd 5503 80bf 0fa5 a0be
00000030: cf4e cfbe 27b9 22bf d62e 1cbf aa67 e8bd
00000040: 1b30 2abf d281 30bd 7558 cfbe d9a7 7fbf
00000050: 052c c3bf e4be d3be 345c 39be ef77 c6bf
00000060: 8946 02bf 6db9 643d aa26 11bf 62bc 51bf
00000070: dc20 61be 52a3 3abf adbb aabe ef78 9bbd
00000080: 6c32 803d c0b2 04bf a57c 0bbf ac99 05bf
00000090: a2a4 1ebf a1db ecbe 849d 33bf 19be 0bbf
000000a0: 1e80 dbbf fcea 4c3c 3c3d 06bf 3061 e0bd
000000b0: a7db a5bf a8c9 bcbf be21 4bbe cd1f e53c
000000c0: 4cda 493d adeb 443d d536 1dbf 384a 85be
000000d0: c96c c3be 34cf eabe e9ee 7bbd a1a1 8abf
000000e0: db45 03bf 6b34 74be 58ba 803d a49f 20bf
000000f0: ea78 b7bd 268c a4bf db9f 16bf 31c2 4bbf
00000100: f4ae 92bf 14be 34bf 5782 6bbe 4851 15bf
00000110: f985 a8be 4173 ffbd ecab 10bf 04d3 08bf
00000120: ebd1 3fbf 714d 953d 005b 5cbf e20f 523d
00000130: ae1e 373b 8131 dbbd ebdf 44bf 4916 983d
00000140: 19a3 e2be c0e8 0ebf e64a 9c3d 4d1f 86bd
00000150: 148a c3be 5502 61be 0d69 5dbf 54cc 13bf
00000160: 75f3 f5bd df98 bd3d 4f87 2cbf df84 15bf
00000170: 60ae 42bf 7551 4cbd b435 40be 9a02 54bf
00000180: aa5b 19bf 6852 b6bd 7fe3 20bf 2315 c93d
00000190: b89c a93d 5208 053e 496f 27bc 78cf 71bf
000001a0: 2811 b4be 3d54 f6be 3ed0 63bf 177b 0dc0
000001b0: e06a 0bbf 5a34 5abf 5ae4 01be cb51 3cbf
000001c0: 4051 77bf 650e 3cbf d57b 22bf dc49 3cbe
000001d0: c99b 13bf 5fd1 bcbd 4d73 12bf 8f90 8abe
000001e0: b69a 59bf ac0b 803d 7c82 00bf f3a1 28bf
000001f0: abfe ba3b d4b1 84bf 4888 bdbf 0f89 9ebe
-0.10242122 -0.13113865 -1.2666566 -0.49863935 -0.66751665 -0.6460706 -0.39867258 -0.5967427
-0.1776032 -0.105249636 -1.0001017 -0.3137593 -0.40489814 -0.6356377 -0.61008966 -0.11347897
-0.66479653 -0.043092556 -0.40497175 -0.9986549 -1.5247809 -0.41356575 -0.18101579 -1.5505351
-0.5088888 0.0558409 -0.5669962 -0.81928074 -0.21985191 -0.7290546 -0.3334631 -0.075914256
0.06259617 -0.5183525 -0.5448707 -0.5218761 -0.6196996 -0.46261314 -0.70162225 -0.5458694
-1.7148473 0.0125071965 -0.52437186 -0.10956037 -1.2957658 -1.4749041 -0.1983709 0.027969265
0.04928045 0.04807632 -0.6141179 -0.26033187 -0.38168934 -0.45861208 -0.06150714 -1.0830575
-0.51278466 -0.23848121 0.06285542 -0.6274359 -0.089586094 -1.285527 -0.5883767 -0.7959319
-1.1459641 -0.70602536 -0.2299894 -0.5832715 -0.32914713 -0.12473155 -0.5651233 -0.53446984
-0.74929684 0.072901614 -0.86076355 0.05128468 0.002794187 -0.107028015 -0.7690417 0.074261256
-0.4426506 -0.558239 0.07631473 -0.06548939 -0.38191283 -0.21973546 -0.8648842 -0.57733655
-0.12009326 0.092576735 -0.67393965 -0.5840587 -0.76047325 -0.04988237 -0.18770486 -0.8281647
-0.59905493 -0.089024365 -0.6284713 0.09818485 0.08281845 0.12991455 -0.010219404 -0.944572
-0.3516934 -0.48111144 -0.8898963 -2.2106378 -0.54459953 -0.8523613 -0.12684765 -0.73562306
-0.9660835 -0.73459464 -0.634702 -0.1838755 -0.57659584 -0.09219622 -0.57207185 -0.27063414
-0.85001695 0.06252226 -0.50199103 -0.65872115 0.0057066283 -1.0366769 -1.4807215 -0.30963942

net.8.weight f4 [4, 128]
00000000: 8632 293d 1f50 adbe 1263 5bbc f4bb 0ebd
00000010: fff2 f4bc 3017 2abe 971e 38be a6aa 0dbc
00000020: 1842 2f3e 54ba f53d 86a1 34be d3a7 3ebe
00000030: 238f 1ebe 2fc5 233d e365 11be aebb 2a3e
00000040: fe43 ebbb d658 36be cbfa 68bc 5020 70bd
00000050: d863 7dbf 95d9 2e3e c3d1 e3bd a807 56be
00000060: d7c1 3ebf 3fca b1bd 0148 11bc 414a 3b3e
00000070: da72 393e d3c3 0ebc 5758 46bf 133a 363e
00000080: c7cd 07be 1712 dabc e8d3 ebbc 7a5f 6f3d
00000090: c7b9 b83c 14d7 31be 2506 acbd fc2a 89bf
000000a0: c2c6 323e 6a03 053e 20ec 5e38 1928 313d
000000b0: 4111 eb3e c602 013e dc3c 133e ad2f 08be
000000c0: 016a c13d 84b8 33be d92c 90bd ea60 bd3a
000000d0: 16d5 08be a5bc 1cbf 7c42 99bc 56e9 8b3d
000000e0: e6dd c6bc 7aea 37bd efb6 fcbe d8da 03bd
000000f0: ec21 b43d f41d 0dbe 0dd8 cdbc 29f2 2c3c
00000100: 9171 d53d f00f babd da20 b8be 5914 e2bd
00000110: 6d28 093e c41d 30bf 859a 9dbd eef2 e5bd
00000120: 0a5b 1f3f 3de6 12bf b857 80bd 68e0 dcbd
00000130: 1079 053c da95 543e 55a7 653d 6ba9 7fbe
00000140: d82e 54bb a681 a23d 69b7 e5bd e681 6a3e
00000150: 6865 d2bd 38c3 c9bd 98ca e6bb 29ac 0bbd
00000160: 2c35 123e 58b0 b2bd 1c05 73bd fce2 8abd
00000170: af63 edbc 1425 503e a1ab 1bbf 6ea3 30bd
00000180: 92e2 9fbb c00d 1c3e 8078 c7bc 650a 503e
00000190: 2f36 31be 8d97 153e 98b3 27bf ed9a f53d
000001a0: 96b9 87bc 4968 d3be e5dc 113e 54b5 bf3d
000001b0: 2c30 dabd 8e76 8bbd 1aa3 14be 5958 803b
000001c0: 9bd4 7ebe ee08 103b acde 53be 7a86 c33f
000001d0: ff38 c13c cf9a 3e3e 0e27 3b3d 1505 813e
000001e0: 24b8 5ebc 730e fdbc 1e89 213d 366f 743e
000001f0: 7e42 c1bd e10f cf3c af41 0cbe e60e 483e
00000200: 7349 0dbb d94b 023e 0a03 e63d 5a3d a7be
00000210: 2b56 a13c 067b 0bbb c828 b73d 8ff7 38c0
00000220: 230b 273e 0e59 193e aaa6 ab3d 7b31 36be
00000230: c601 f13d ace4 81be 7b25 a53d 7935 dc3d
00000240: 89fd a9be f229 82be 6c21 dcbd 0665 bb3d
00000250: df8c 453e 678e f73d 5b87 69be af17 563e
00000260: dfe1 123d 3905 3cbe ef4c c5be 93d4 10bf
00000270: 6047 a3bd 5588 a3bc c573 07ba 4786 bd3d
00000280: 33cb 16be 648e a0bc 7d69 04be 3f52 2cbe
00000290: 428e 8fbe 9009 afbd db1c de3d 77fe 82bb
000002a0: b7f7 173e 12db 83bd c360 f43d dbfe 3bbe
000002b0: dd5d bbbe cf53 243e cf76 063e 989e 57be
000002c0: fe31 92be b410 10be 2c3d 8ebe 1521 6dbe
000002d0: 441d a93d 36d5 82bc 94ee 8bbe be38 a83d
000002e0: 2ff9 ddbc c74e c73d 14ed 213d c4b4 f5bd
000002f0: dfb3 fc3d 8457 013e 5e8d 52bd 7ed5 89bf
00000300: 807f 753d 327a e7bd 1b0d 5cbf 1b88 b9be
00000310: c1b8 4b3f a395 ca3d 49a4 3bbd ca00 11be
00000320: 0044 48bf 124f 763d 2ca2 92be 6bba 8ebe
00000330: 1faf 09bf 35a0 ac3d 5bae 10be e26a 4bbe
00000340: fce5 6bbd d287 febe f204 12be 48db 303e
00000350: 6338 b1be 2f3d 28bd f3cc 41bf f4d8 f43b
00000360: 006e ff3d 9913 48be a96f 803d d7bb 75bd
00000370: 0062 a83d 66c9 b73d eb7b e33c d98b 00bf
00000380: af0d c3bd a2ba f23d 8f48 8bbf b081 12be
00000390: 9183 13be 43cb a83e c43f e93d e5b7 873d
000003a0: 55b1 20bd 8ac5 6abd f9d7 a93d 5b03 3b3e
000003b0: 3322 f9bc 9326 b43d abf4 2dbf ccbe 2b3b
000003c0: f407 d43d ee53 2dbf 91e5 99bd a8dc 093e
000003d0: 3b36 4dbf a8ec cb3d 088d 08bc ade3 6abe
000003e0: 1442 7cbe 1333 d4be d500 89bd b777 d7bf
000003f0: 3ce7 98be 4bb4 983d 513b b73d c922 74be
0.04130795 -0.3385019 -0.013390319 -0.034847215 -0.029901026 -0.16610408 -0.17980419 -0.008646643
0.17115057 0.1199843 -0.17639741 -0.18618707 -0.1548429 0.03998297 -0.14199023 0.16673157
-0.007179736 -0.17807326 -0.01421995 -0.058624566 -0.98980474 0.17075188 -0.11123993 -0.20901358
-0.74514526 -0.086811535 -0.008867265 0.18290044 0.18110219 -0.00871368 -0.77478546 0.17795591
-0.13262092 -0.026619954 -0.028787568 0.058440663 0.022549523 -0.17367202 -0.083996095 -1.0716243
0.17458633 0.12989584 5.3148833e-05 0.04325113 0.459116 0.12598714 0.14378685 -0.13299437
0.09444047 -0.17550856 -0.07039804 0.0014448438 -0.13362536 -0.6122535 -0.01870846 0.06831615
-0.024275731 -0.04490135 -0.49358317 -0.032191128 0.087955326 -0.13780957 -0.025127435 0.010555782
0.10422052 -0.09085071 -0.35962564 -0.11039037 0.13394327 -0.6879542 -0.07695488 -0.11227976
0.6224829 -0.57382566 -0.06266731 -0.107849896 0.008146539 0.20760289 0.056067783 -0.24966972
-0.0032376554 0.07934885 -0.11216623 0.22901115 -0.10273248 -0.09851688 -0.007043194 -0.03409973
0.14278096 -0.08725041 -0.059331045 -0.06781575 -0.028978197 0.20326644 -0.6080876 -0.04312461
-0.004879304 0.1523962 -0.024349451 0.20316465 -0.17305826 0.14608593 -0.65508413 0.119924404
-0.016567986 -0.412905 0.14244421 0.093607575 -0.10653719 -0.06809722 -0.14515343 0.003916782
-0.2488579 0.0021977979 -0.20690411 1.5275414 0.023586748 0.18613742 0.045691542 0.2519919
-0.013593707 -0.030890679 0.039437406 0.23870549 -0.094365105 0.025276126 -0.13696931 0.19536933
-0.0021558672 0.12724246 0.112310484 -0.32663995 0.019694408 -0.0021283044 0.08943325 -2.8901098
0.16312842 0.14975378 0.08381398 -0.17792313 0.117679164 -0.25369775 0.080637895 0.107523866
-0.33201244 -0.25422627 -0.10748562 0.09150128 0.1929202 0.12087708 -0.2280554 0.20907472
0.03585994 -0.18361367 -0.38535258 -0.5657436 -0.07972598 -0.01996247 -0.00051670923 0.09254127
-0.14725952 -0.019599147 -0.12930866 -0.1682825 -0.28038222 -0.08546746 0.108453475 -0.0039976197
0.1484059 -0.06438269 0.11932518 -0.18358938 -0.3659505 0.16047595 0.1313126 -0.21056592
-0.28553766 -0.14068872 -0.27781045 -0.23157151 0.08257535 -0.015970808 -0.27330458 0.08213948
-0.027096359 0.097318225 0.039532736 -0.11997369 0.12338995 0.12631041 -0.05140435 -1.0768278
0.059936047 -0.11302604 -0.859575 -0.36236653 0.7957879 0.09891822 -0.04581097 -0.14160457
-0.7822876 0.060134 -0.28639352 -0.278766 -0.5378284 0.084289946 -0.14129011 -0.19864991
-0.057592377 -0.49712998 -0.14259699 0.17271149 -0.34613332 -0.041073974 -0.7570335 0.007472152
0.12472153 -0.19538726 0.062712975 -0.05999359 0.08221817 0.089739606 0.02776905 -0.5021339
-0.09524094 0.11852004 -1.0881518 -0.14307284 -0.14405657 0.32967576 0.113891155 0.06626872
-0.039231617 -0.057317294 0.08293147 0.18262999 -0.030411815 0.0879642 -0.6795146 0.0026206253
0.103530794 -0.6770619 -0.075144894 0.1346308 -0.80160874 0.09957248 -0.008334406 -0.22938414
-0.24634582 -0.41445217 -0.06689612 -1.6833409 -0.29863918 0.07456263 0.089468606 -0.23841394

net.8.bias f4 [4]
00000000: b114 51be 1b4c d8bd 43b3 86be 539c ffbe
-0.2041805 -0.10561391 -0.2630864 -0.49923953
